src/qonnx/data/onnx/bsd300x3-espcn/subpixel/float_model.onnx (onnx, 273280 bytes, 7 tensors)

conv1.weight f4 [64, 3, 5, 5]
000000 16 05 0a bd 94 43 d0 3d 7a 07 8b 3d 88 69 87 3d
       -0.033696257 0.101691395 0.067885354 0.06611925
000010 de d6 28 bd 5a 51 8e 3d 38 6a e8 bc c8 94 9d 3d
       -0.04122054 0.0694911 -0.028370962 0.076943934
000020 10 b7 49 3c e0 85 20 bd 08 45 bc 3d 85 59 e0 bd
       0.012311712 -0.039190173 0.09192854 -0.109545745
000030 3c 91 e2 bc 80 85 c9 bd 40 fc 5f 3c 5c 30 c6 bc
       -0.027657144 -0.09839916 0.013670981 -0.024192981
000040 e0 ef 5d bb e8 d3 1a bc 0c a1 3e 3d b0 e8 31 bc
       -0.00338649 -0.009449936 0.046540305 -0.0108587
000050 18 8e ae 3d b8 ac a3 3d 58 15 c5 3d 0a c8 33 bd
       0.08523196 0.07991928 0.096232116 -0.043891944
000060 ac f3 b1 bd 03 8e 7f bd 0e 37 ce bd c4 f0 a9 bd
       -0.08689055 -0.062391292 -0.100690946 -0.082978755
000070 56 c3 8d bd 40 2d 91 bc 98 eb e3 bd 8e ae ce 3d
       -0.06922023 -0.017721772 -0.1112892 0.100918874
000080 4b db 95 bd 54 71 e3 3d 64 a0 c1 bd 67 36 a9 bd
       -0.073172174 0.111056 -0.0945442 -0.082623295
000090 22 33 e8 bd 10 3d ce 3b 6a 5d c6 3d da 95 2a bd
       -0.11337878 0.0062939003 0.09685786 -0.041646816
0000a0 e8 c7 ef 3c 00 e8 b6 39 8a d8 a9 bd 92 3e bd 3d
       0.029270127 0.000348866 -0.08293255 0.0924045
0000b0 88 b8 fa 3c 3c 15 a6 bd e0 85 e1 3d 62 df e5 3d
       0.03060557 -0.08109519 0.11011863 0.112242475
0000c0 f0 fb 98 3d a4 83 bf 3d 73 d2 df bd 38 41 aa bd
       0.07469928 0.0935128 -0.10928812 -0.08313221
0000d0 3e c0 cc bd a0 6b 79 3c 58 90 b8 3d 4c d7 ef bc
       -0.09997605 0.015223414 0.090119064 -0.029277466
0000e0 34 8a 65 bd a0 78 33 bc 04 52 56 bd 54 26 e0 3d
       -0.056040004 -0.010954052 -0.05232431 0.109448105
0000f0 c0 cd ff bc ac 33 d1 bd 78 e6 9b bd c0 2e a3 3d
       -0.031226039 -0.10214934 -0.07612318 0.07967901
000100 26 d8 ce 3d f6 7f 45 bd 08 2c e2 bd 16 d2 23 bd
       0.10099821 -0.048217736 -0.110435545 -0.039995275
000110 b4 15 a5 3d 08 f5 cc 3c 2a 65 92 3d e2 23 a3 3d
       0.0806078 0.025019184 0.07148202 0.079658285
000120 98 19 bd 3d f0 05 a4 bc 3c 35 64 3d e4 89 9f 3d
       0.09233397 -0.020022362 0.05571483 0.077899724
000130 82 d8 79 bd e4 dd 7e 3d 7a 18 b0 3d 28 7e 0a bc
       -0.060997494 0.06222333 0.085984185 -0.00845293
000140 4a a1 bf 3d be 19 ca 3d 70 39 bb 3d 24 a4 6a 3d
       0.09356935 0.09868191 0.09141815 0.057285443
000150 c4 1f eb bd f8 1e 51 3d a8 11 af bc e0 b6 73 3c
       -0.11480668 0.051054925 -0.021370724 0.014875144
000160 e0 a6 54 3b 1d 08 86 bd 80 35 99 3c 29 92 c1 bd
       0.0032448098 -0.06544516 0.018702269 -0.09451706
000170 10 a9 e3 3b 7e ea cd 3d 06 2a 3f bd 48 d4 cc 3d
       0.006947644 0.100544915 -0.046670936 0.10001427
000180 4c bd 88 bd c0 6c a8 3d 6e 93 a6 bd ba b2 a1 3d
       -0.066767305 0.082238674 -0.08133589 0.078954175
000190 ba eb a6 3d e6 2e b0 bd 20 64 bb bd 02 7c 55 bd
       0.0815043 -0.08602695 -0.09149957 -0.052120216
0001a0 c0 5d e8 3c e6 0b a8 3d 98 9d 3d bc c7 8e aa bd
       0.028365016 0.082053944 -0.011573218 -0.08328014
0001b0 50 c9 cc 3d 3c 36 83 3d cc 1d 92 bc 50 af 63 3d
       0.09999335 0.06406829 -0.017836474 0.055587113
0001c0 26 cf 1c bd 7e 63 20 bd a0 d7 2e 3c ae 66 ad 3d
       -0.03828349 -0.039157383 0.010671526 0.0846685
0001d0 0c 31 dd bc f2 be c2 bd 5d a5 d8 bd 28 2b c4 3d
       -0.027000926 -0.09509076 -0.105784155 0.09578544
0001e0 36 0e b7 3d 70 52 c1 bd 52 b3 db 3d 20 76 cd 3c
       0.089382574 -0.09439552 0.10727562 0.02508074
0001f0 e0 45 04 3c 53 80 ce bd fc aa ba bd 36 1b a4 bd
       0.0080733 -0.1008307 -0.09114644 -0.080130026
000200 0c ef 0b 3d 96 9b bf 3d 40 ce 4a 3c d6 5d c3 3d
       0.03416352 0.093558475 0.012378275 0.09539382
000210 a3 15 7e bd d8 63 cd 3c 04 3e 4a bd c8 17 8c 3c
       -0.062032353 0.025072023 -0.04937555 0.017101184
000220 f0 4c 5b 3d 42 fa a7 3d 09 57 7a bd 1b 0a b8 bd
       0.05354017 0.0820203 -0.06111816 -0.089863025
000230 90 48 9f 3d 06 95 da bd a8 8b b3 3c a0 d0 95 bd
       0.07777512 -0.10672955 0.02191718 -0.07315183
000240 60 a9 c4 3d f8 89 28 bc 80 69 8c 3c 88 ae 38 bc
       0.09602618 -0.010286801 0.01714015 -0.01127208
000250 20 53 c5 3d 9e 67 6b bd 5c 35 9e 3d 8c 39 10 3d
       0.096349955 -0.057471864 0.07725021 0.03521113
000260 68 6b 87 bc b4 b5 41 3d e8 f8 d4 3c c4 e5 91 bc
       -0.016530707 0.047292426 0.025997594 -0.017809756
000270 b2 37 67 bd b4 6e 63 3d d0 28 39 3d f8 b1 5f 3d
       -0.0564496 0.055525497 0.045204937 0.054613084
000280 8c ea 3b 3d c8 9b 8c 3c b8 6d 31 bc ec 4f 9c 3d
       0.04587798 0.017164126 -0.010829382 0.076324314
000290 ab aa bf bd 84 5a b7 bc e6 a8 b2 bd 80 2b af 3b
       -0.09358724 -0.022382028 -0.08723621 0.005345762
0002a0 6c d7 d5 3d 3a 23 4f bd 78 79 36 bd e8 3f e5 bd
       0.10441479 -0.050570704 -0.044549435 -0.1119383
0002b0 22 26 6b bd 64 27 97 bd 3a 94 4b bd f8 e6 38 3d
       -0.057409413 -0.0738056 -0.049701907 0.045142144
0002c0 44 97 d4 3d c8 6b c1 bd 06 65 bd 3d 20 2f 4b 3c
       0.10380414 -0.09444386 0.09247784 0.012401372
0002d0 79 3e 5a bd 42 5b cb 3d a0 75 99 bd fc 7a 35 3d
       -0.053282235 0.099295154 -0.07493138 0.04430674
0002e0 2e af c4 3d 80 12 50 3c 70 03 39 bd e0 69 30 3d
       0.096037254 0.012699723 -0.045169294 0.04306972
0002f0 6c 09 a0 bd ac db 41 3d a0 54 d9 bd d4 74 bf bd
       -0.07814297 0.047328636 -0.10611844 -0.09348455
000300 3c 64 c9 3d 64 7f 12 3d de 98 82 bd 97 64 c5 bd
       0.09833571 0.03576602 -0.06376813 -0.096383266
000310 2a 69 c9 3d 9a 5b 97 bd b0 ce d8 3c 53 85 87 bd
       0.098345116 -0.073905185 0.026465744 -0.066172265
000320 00 a9 fc bb fe a7 aa bd ce 81 a4 3d 78 70 cc 3c
       -0.007710576 -0.08332823 0.08032571 0.024955973
000330 20 57 c9 3c c4 18 c0 3d 0e 9b b5 3d 60 a7 1a 3d
       0.024577677 0.09379724 0.08867465 0.037757277
000340 f0 e2 3c 3c a8 8d 8a 3c 63 91 ce bd 60 2c 54 bb
       0.0115287155 0.01691325 -0.10086324 -0.0032375082
000350 94 ff c6 3d 00 46 9a bd 94 fd 5c 3d 30 10 4b bd
       0.097167164 -0.07532883 0.05395277 -0.049575984
000360 c8 3f 3d 3d 60 d8 2e bb 0e d5 85 3d f6 84 cc 3d
       0.046203405 -0.0026679263 0.065347776 0.09986298
000370 38 8c 13 3c 50 0c 35 3d 3e 52 0c bd 12 1a 87 3d
       0.009005599 0.044201195 -0.03425812 0.065967694
000380 00 81 ab 3a d8 26 01 bd 30 1e 86 3b 8c c6 d1 bc
       0.001308471 -0.031531185 0.004092954 -0.02560737
000390 c8 bd e7 3d 60 60 8e 3b 6a 8b 0d bd 74 15 c9 bd
       0.11315495 0.004344985 -0.034556784 -0.09818545
0003a0 70 48 8c bd 9f 5c bb bd 4d 13 5b bd 28 2c 00 bd
       -0.06849754 -0.091485254 -0.053485204 -0.03129211
0003b0 90 74 51 3d 86 60 b5 3d e5 0c d2 bd 22 17 4a bd
       0.051136553 0.08856301 -0.10256366 -0.049338467
0003c0 ce b5 a0 bd 63 ea eb bd 48 e4 b4 bc f8 fa 18 3d
       -0.078471765 -0.11519315 -0.02208151 0.037348717
0003d0 da db c9 bd ce 9e d8 bd 52 66 1b bd 24 2b 94 bd
       -0.098563865 -0.105771646 -0.037939377 -0.07234791
0003e0 5e a3 88 3d 50 c9 9e 3c 1a 18 e9 bd 84 22 73 bd
       0.06671785 0.019383103 -0.1138155 -0.05935909
0003f0 c0 19 61 bb 6e e0 d5 3d 3e e9 ce 3d fa 3f c0 bd
       -0.0034347624 0.10443197 0.10103081 -0.093872026

conv1.bias f4 [64]
000000 20 57 21 bb 52 b8 ca bd 4e 78 c8 3d 2c 3b 7c 3d
       -0.002461858 -0.098984376 0.09788571 0.06157987
000010 ba a8 86 bd 10 06 e7 bc 9b ae 89 bd 7d a1 c6 bd
       -0.06575151 -0.028201133 -0.067227565 -0.0969877
000020 38 80 e1 bc 70 43 41 3c 14 28 81 bd 5a 02 e3 bd
       -0.02752696 0.0117958635 -0.063064724 -0.11084433
000030 da 0f af bd 3c 72 d0 bc 09 91 df bd b4 1d d5 bd
       -0.08547945 -0.025445096 -0.10916335 -0.10406056
000040 40 8d b1 3d 50 2f 73 3d c0 1b cf bd b0 58 c2 3d
       0.086695194 0.059371293 -0.10112715 0.09489572
000050 28 84 46 bd ec 68 1d 3d a4 b9 9c bd 54 26 55 bd
       -0.048465878 0.03843014 -0.07652596 -0.052038506
000060 0f 90 ae bd 8e 6e 9c 3d 92 82 c7 3d e2 50 30 bd
       -0.08523571 0.07638274 0.09741701 -0.043045886
000070 e4 49 8d bc 37 01 81 bd ee 30 11 bd d8 49 9c 3d
       -0.017247148 -0.0629906 -0.035447054 0.07631272
000080 42 ed 39 bd 99 89 d1 bd d0 a9 c4 3d b2 d4 b9 3d
       -0.045392282 -0.10231323 0.09602702 0.090737715
000090 40 a0 58 3c 1c 99 b4 bd 0c af 1c 3d 00 70 2d 39
       0.0132218 -0.08818266 0.038252875 0.00016540289
0000a0 78 60 47 3d 28 8d a2 3d 4c d9 c6 3d f4 67 65 3d
       0.048675984 0.0793708 0.09709415 0.05600734
0000b0 ec de 9b bd 34 d1 cd 3d 24 92 72 3d b2 46 24 bd
       -0.07610878 0.10049668 0.0592214 -0.040106483
0000c0 ce c5 8a bd ce 08 da 3d 12 49 ba 3d cd d2 b7 bd
       -0.067760095 0.106462106 0.09095968 -0.08975754
0000d0 c0 98 98 3d 28 c9 d6 bd b8 a9 fc 3c 8c 6a a0 3d
       0.0745101 -0.10487586 0.030842647 0.07832822
0000e0 b0 0f 1f 3c b4 63 9b 3d 62 5d 39 bd fe 1e a1 bd
       0.00970833 0.07587376 -0.045255072 -0.078672394
0000f0 c8 ef e6 3d be d8 59 bd e2 14 db 3d 90 0f d6 3d
       0.112762034 -0.053185217 0.106973425 0.10452187

conv2.weight f4 [64, 64, 3, 3]
000000 aa b1 e7 3c 79 15 0b 3d 3c b0 05 bc c3 ab 02 3d
       0.028282959 0.033956025 -0.008159693 0.031902086
000010 90 b1 63 3b e3 09 06 bd dc d5 14 bd 54 90 44 3c
       0.0034743287 -0.032724272 -0.036336765 0.011997301
000020 ee 32 cf 3c 6e df 22 bd 69 c8 0a 3d 28 4a e8 bc
       0.02529284 -0.03976386 0.033882532 -0.028355673
000030 8d 61 17 3d f8 e6 cc 3b 9a 2b e4 3c 7e 7a d8 bc
       0.036958266 0.0062531196 0.027852822 -0.026425596
000040 95 57 09 3d 36 11 ee 3c 08 90 d3 3b 7a c4 c1 3c
       0.03353079 0.029060941 0.006456379 0.023653258
000050 bc 84 55 bc 90 4c bb bc 4a c2 b3 3c 84 d7 16 3c
       -0.013032135 -0.022863656 0.02194323 0.009206656
000060 04 5c 7d 3c 48 07 b3 bb 7a 89 f5 3c a9 47 09 3d
       0.015463833 -0.0054635145 0.02997278 0.033515606
000070 9f c3 06 3d 80 c2 34 3c 1c ea 13 bc d8 5f 16 bd
       0.032901403 0.011032701 -0.009027984 -0.036712497
000080 c0 6b 97 3c 40 ea 25 3a e2 de d9 3c d0 53 50 3c
       0.018483996 0.00063291565 0.026595537 0.012715295
000090 c0 14 37 3c 36 77 a6 bc d0 3c 70 bc 00 28 70 3b
       0.011174381 -0.020320516 -0.014662936 0.0036644936
0000a0 20 25 ec bb 00 b5 70 ba 34 dd 19 3c 00 69 4d bb
       -0.007206574 -0.00091822445 0.009391118 -0.0031343102
0000b0 1b fe ca bc d4 1d 3c 3c 51 35 23 3d c4 7c 1b bd
       -0.02477937 0.011481721 0.03984577 -0.037960783
0000c0 a2 ad c6 3c 15 d9 1f 3d 9e ff 97 bc e3 2c ce bc
       0.024252716 0.039025385 -0.018554505 -0.025167888
0000d0 e0 43 8b 3a 58 2a ee 3b 80 fd 9e bb 0c 2d 5a bc
       0.0010625087 0.0072682314 -0.004851997 -0.013316404
0000e0 c0 83 43 bb 40 39 09 ba 6e 64 88 bc 1a 6f e5 3c
       -0.0029833168 -0.0005234666 -0.016649451 0.028007079
0000f0 80 a2 c7 3b 80 01 e6 3a 70 53 0e 3c d6 50 96 bc
       0.0060923696 0.0017548054 0.008686885 -0.018349092
000100 1e be d8 bc 15 f4 06 3d db 82 22 3d bb 44 de bc
       -0.026457842 0.03294762 0.039675575 -0.027132383
000110 d0 67 5a 3c c6 26 e7 bc c6 3c 83 bc f8 c8 a8 3b
       0.013330415 -0.02821673 -0.01602019 0.0051509105
000120 3b 95 1a bd 10 f5 29 bd 3e 2e d5 bc 0b 90 9a bc
       -0.037739974 -0.041493475 -0.026023027 -0.018867513
000130 8e 48 88 3c a6 67 ab 3c 00 33 14 bd c0 a8 e8 bb
       0.01663616 0.020923447 -0.03618145 -0.0071001947
000140 f9 b0 17 3d a2 3a c4 3c c2 d4 8e 3c 8c df 08 3c
       0.03703401 0.02395374 0.017435435 0.008354079
000150 44 df 63 3c 20 f1 d3 ba ed 13 18 3d 4b 34 20 bd
       0.013908211 -0.0016169883 0.037128378 -0.03911237
000160 c8 4a 29 bd 0e 94 86 3c 32 02 c3 3c de b5 11 bd
       -0.041331083 0.01642802 0.023804758 -0.035573833
000170 e0 bb 82 ba c8 7b 89 3b 50 8b 2e bc 18 46 f8 bb
       -0.0009974204 0.004195664 -0.010653332 -0.007576715
000180 a0 2e 8b bb 10 7c 26 bd 10 49 19 bc e9 0b 24 3d
       -0.0042475015 -0.04064566 -0.009355798 0.04005042
000190 5d 63 04 3d a0 b8 f7 bb dd 9b 16 3d 2e ed f5 3c
       0.032321323 -0.007559851 0.036769737 0.030020323
0001a0 33 e5 1d bd 08 d9 19 bd e6 af 8f 3c 56 cb 2c bc
       -0.03854866 -0.037560493 0.01753993 -0.010546526
0001b0 16 03 66 bc a7 91 19 bd 3e 97 d3 3c 02 e7 df 3c
       -0.014038822 -0.03749242 0.025828954 0.027331833
0001c0 40 01 81 3c 1b a7 aa bc 9a 47 d5 3c d4 94 1a bd
       0.015747666 -0.020831635 0.026035119 -0.03773959
0001d0 ae 82 b6 3c 60 36 74 bc ac 22 04 bc 73 43 21 3d
       0.02227911 -0.014905542 -0.008064907 0.039370965
0001e0 76 f7 1a bd d8 90 a0 3b 88 9e b3 bc b7 ea 1e 3d
       -0.037833653 0.004900079 -0.02192618 0.03879806
0001f0 08 de 98 bc 8b 46 9f bc e5 0d 01 3d 24 da 7a 3c
       -0.01866056 -0.019442817 0.03150739 0.015310798
000200 62 13 b9 3c 19 b4 1d 3d db 2c a8 bc a9 9b 0f 3d
       0.02259225 0.038501833 -0.020529201 0.03506056
000210 ea 2c e2 3c 7b 1f 22 bd ee eb c6 3c f6 cd a5 3c
       0.027609307 -0.039580803 0.024282422 0.020239811
000220 2b b3 c9 bc 00 23 86 ba 60 b7 bc 3b c0 5b ac 3b
       -0.024621567 -0.001023382 0.0057591647 0.005259961
000230 46 81 7e bc 41 ca 21 3d 72 14 be 3c e2 1b 0f bd
       -0.015533751 0.039499525 0.023203108 -0.0349387
000240 8b 59 e8 bc 5d 45 0d 3d 6a 08 18 bd bc 16 69 bc
       -0.02836301 0.034489978 -0.0371174 -0.014226612
000250 15 38 18 3d c0 ac c6 bc 9a 00 ed 3c 22 b9 ed 3c
       0.03716286 -0.024252295 0.02893095 0.029018942
000260 d2 79 88 3c ae 0e 9e bc 80 e3 d5 bc f0 89 e5 bc
       0.016659651 -0.01929411 -0.026109457 -0.028019875
000270 14 b9 28 bd 31 2e 12 3d d4 a9 49 3c 00 ff a1 bc
       -0.04119213 0.035688583 0.012308557 -0.019774914
000280 a3 6a 9e bc e0 cf 87 3c fe cb ba 3c 7d 75 1c 3d
       -0.019337958 0.016578615 0.02280235 0.038197983
000290 15 4c 23 3d 50 69 70 bb 00 c0 60 3c 52 52 13 bd
       0.03986748 -0.0036683865 0.013717651 -0.03596718
0002a0 8e 97 ad bc ef e9 17 bd 46 28 b8 3c 00 d3 e6 3a
       -0.021190431 -0.03708833 0.022480141 0.001761049
0002b0 0b 1f e1 bc 58 a9 b1 3b f8 e7 8c 3c 70 23 02 bc
       -0.027480623 0.0054217987 0.017200455 -0.007943019
0002c0 2a 96 1c bd 2c ee 21 3c d2 b4 87 3c 2a 8a a4 3c
       -0.038229145 0.009883445 0.016565714 0.020085413
0002d0 06 de d9 bc d6 dc a9 bc fe 59 b2 bc a6 6b da bc
       -0.026595127 -0.020735186 -0.021771427 -0.026662659
0002e0 90 c8 03 3b 70 53 3f 3b 20 2f 7d 3c 43 d0 d8 bc
       0.0020108558 0.002919402 0.01545313 -0.026466494
0002f0 00 90 54 3c 20 87 8c bc 9c 05 16 bd 00 80 e4 ba
       0.012973785 -0.017154276 -0.036626443 -0.0017433167
000300 fb 81 a6 bc 18 93 ad 3b 1d 24 12 3d 58 68 c0 bb
       -0.020325651 0.005297076 0.03567897 -0.0058718137
000310 32 1b bb 3c 28 13 93 3c 36 0f de bc e0 76 2d bc
       0.022840116 0.01795347 -0.027106863 -0.010587424
000320 70 50 c4 bc c3 5d cb bc 2e 10 13 bd 8e ba e4 3c
       -0.023964137 -0.024824983 -0.035904102 0.027920987
000330 c2 0a e4 3c e4 37 06 3c 3b f3 a1 bc 80 b6 aa ba
       0.027837161 0.008192036 -0.019769302 -0.001302436
000340 d9 58 19 3d be 9f 21 bd 0d 42 0c 3d 00 80 c5 39
       0.037438247 -0.039458983 0.03424268 0.00037670135
000350 2c 67 29 3c 3f f4 01 bd e8 82 81 bb fe d8 d0 3c
       0.0103395395 -0.03172707 -0.003952373 0.025494095
000360 60 b7 f2 3a 54 ab 14 bc 4a c2 eb 3c e8 9f 98 3c
       0.0018517785 -0.009074051 0.028779168 0.018630937
000370 15 b6 12 3d 89 8a 0a 3d 0c c1 59 3c 20 ac c1 3a
       0.03581818 0.033823524 0.013290655 0.0014776029
000380 d8 6d 98 3b f8 5c e3 bc 6e d5 04 bd 8e c7 f9 bc
       0.0046517663 -0.027754292 -0.032430105 -0.030490663
000390 e0 98 c6 3b c0 d6 05 ba 7c ff 7a 3c 9a de f7 3c
       0.0060607046 -0.00051055476 0.015319701 0.030257512
0003a0 f8 b9 a4 bb 80 35 b1 ba 90 54 11 3b 80 58 93 3a
       -0.005027052 -0.0013519973 0.0022175647 0.0011241585
0003b0 00 f4 dc bb 50 a8 7f bc 8a ff b0 3c bb c5 82 bc
       -0.0067429543 -0.015604094 0.021606226 -0.015963426
0003c0 b8 63 db bb 7a 28 d6 3c 9e a9 0a bd 70 2d 6b 3b
       -0.006695237 0.026142348 -0.033853166 0.0035885237
0003d0 1d f2 1f 3d 3a 0f 16 bd 7c a3 0e 3c 40 ac 3d ba
       0.039049257 -0.036635615 0.00870597 -0.0007235445
0003e0 00 3d e2 3b 80 bb fa b9 1c 29 1a 3c 76 40 97 3c
       0.0069042444 -0.00047823414 0.009409215 0.018463355
0003f0 a4 1e 5d 3c 4e cd 24 bd d3 65 25 3d 66 df 37 bc
       0.013496075 -0.040234856 0.04038031 -0.011222696

conv2.bias f4 [64]
000000 a8 c3 b6 3b aa cc f9 3c 3e ad e4 bc be 67 91 bc
       0.0055775233 0.0304931 -0.02791464 -0.017749663
000010 80 af 65 3c 22 12 c6 3c 90 49 d0 bc 84 27 53 3c
       0.014018893 0.024178568 -0.025425702 0.012887839
000020 28 f4 94 bc 00 00 6f ba 1b b4 22 3d de 7f 20 bd
       -0.018182829 -0.00091171265 0.039722543 -0.039184444
000030 04 49 17 bc 9b 21 92 bc dd 9a 02 3d b6 aa e8 3c
       -0.009233717 -0.01783829 0.03188597 0.028401714
000040 68 5c 95 bc 38 ac a9 bb b0 f6 53 3b 24 1c 6c 3c
       -0.01823254 -0.005178001 0.0032343082 0.014411006
000050 3a cf 1e bd 72 6a d1 3c be 0d e7 bc 93 ce f9 bc
       -0.038771845 0.025563452 -0.028204795 -0.03049401
000060 00 5a 5f 3c 42 99 dd 3c c0 03 c4 bc ce b1 b0 bc
       0.0136322975 0.027050618 -0.02392757 -0.021569159
000070 62 1f d1 3c 92 00 e3 3c e8 e6 89 3b 00 bc 92 39
       0.02552766 0.027710233 0.0042084344 0.0002798736
000080 4a ad a3 3c 80 e8 b3 bb 02 01 cc 3c 18 62 8b bc
       0.019980092 -0.0054903626 0.024902824 -0.017014548
000090 f0 0d 22 bc 2f e0 28 3d 40 d9 7f 3a a1 40 18 3d
       -0.009891018 0.041229423 0.0009759851 0.03717101
0000a0 40 f3 a0 3b fc 92 63 bc bc e6 59 3c ec 77 78 bc
       0.00491181 -0.013890024 0.01329964 -0.01516531
0000b0 83 89 b8 bc 87 d3 01 bd 80 dd b7 ba 82 cb 8b 3c
       -0.022526508 -0.03169587 -0.0014027804 0.017064814
0000c0 50 bb a7 bc a8 4c be bb be 1d ea 3c 3e 0c e8 bc
       -0.02047506 -0.005807478 0.028578635 -0.02832615
0000d0 24 03 5b 3c 28 1a ba 3b 04 23 73 3c 3b e5 19 3d
       0.013367448 0.0056793876 0.014839891 0.037572127
0000e0 ae 40 1b bd 80 e2 8d 3b dc 78 10 3c 93 47 f9 bc
       -0.03790348 0.0043299794 0.008817878 -0.030429637
0000f0 a2 72 ac 3c 50 35 ce bc 78 29 ad bb eb 33 06 bd
       0.021050755 -0.025171906 -0.0052844845 -0.032764357

conv3.weight f4 [32, 64, 3, 3]
000000 52 44 98 3c 80 05 b8 3b 53 aa 04 3d a8 fe e9 bb
       0.018587265 0.00561589 0.032388996 -0.007140953
000010 80 4f 93 3b 80 d3 ea 39 68 ba f8 3b 58 35 d0 bb
       0.004495561 0.00044789538 0.0075905807 -0.0063540153
000020 8c 6e 5e 3c 77 32 1e bd 66 c1 2c bc 51 21 26 3d
       0.013576161 -0.038622346 -0.010544157 0.040559117
000030 d0 39 9f bc 4e cb 84 bc 9c fb 41 3c 1b 8c ca bc
       -0.019436747 -0.016210224 0.0118397735 -0.02472501
000040 fe c7 c8 bc 50 ec 61 3b 4b 2c 9b bc 42 9f c5 3c
       -0.024509426 0.0034473129 -0.018942019 0.024123792
000050 46 99 ed 3c c4 b7 2e 3c 1e 9a a9 bc e3 c4 a2 bc
       0.02900375 0.01066393 -0.020703372 -0.019869274
000060 d2 72 ee 3c 2f 80 12 bd 2b 70 8c bc 40 43 3a ba
       0.029107485 -0.035766777 -0.01714333 -0.0007105358
000070 b0 ad 53 bb 6a 56 cc 3c ae f3 22 bd 98 6c c9 3b
       -0.003229957 0.02494355 -0.039783172 0.0061469786
000080 42 ff d2 3c 63 2e 19 3d d3 c1 d0 bc 73 55 17 3d
       0.025756482 0.037397753 -0.025483048 0.036946725
000090 ac cc 5e 3c 50 4d 27 bd d7 e3 28 bd 6e 5d b4 bc
       0.013598602 -0.040845215 -0.04123291 -0.022017207
0000a0 13 64 99 bc 8c b6 73 3c ca b5 f6 3c 64 09 08 bd
       -0.018724477 0.014875066 0.03011598 -0.03321208
0000b0 86 ad 12 bd 80 18 92 ba 96 15 a6 3c 9f fa 08 bd
       -0.035810016 -0.0011146218 0.020273965 -0.033442136
0000c0 0b 2d 80 bc 81 54 11 3d cb 69 04 3d f2 5f 04 bd
       -0.015646478 0.03548098 0.032327455 -0.032318063
0000d0 68 5f f8 bc fe 7c b2 3c 00 83 37 bc 82 df ef 3c
       -0.03031893 0.021788117 -0.011200666 0.029281382
0000e0 95 9f 24 3d f3 4e 06 3d c8 33 d4 bc 86 59 39 bc
       0.04019125 0.032790136 -0.025903597 -0.011312848
0000f0 e2 20 f1 3c ab 00 19 3d b7 05 2a 3d 9a b8 03 bd
       0.029434625 0.037354153 0.041509356 -0.03215847
000100 1b 6e 1d 3d f1 e7 19 3d 13 5a c5 bc 0b 7f 89 bc
       0.038435083 0.037574712 -0.024090802 -0.016784212
000110 89 e9 18 3d dc 2e 0c bc fb 16 ce bc df 5c 27 bd
       0.03733209 -0.008556094 -0.025157442 -0.040860053
000120 a0 5c 14 bc de e4 c6 3c 7d b9 24 3d 53 6e 14 bd
       -0.009055287 0.024279054 0.040215958 -0.036238026
000130 c0 ac f1 bc 7e 74 a0 3c aa 13 f2 3c da 60 89 3c
       -0.029501319 0.019586798 0.029550392 0.016769815
000140 c4 af 4a 3c 2a 8b f4 3c 88 ba a3 bb 2e af 8d bc
       0.012371007 0.029851515 -0.0049966015 -0.017295446
000150 90 8c 8a 3c e6 10 36 bc e8 01 c8 3b 20 40 44 3c
       0.016912729 -0.011112427 0.006103743 0.011978179
000160 60 c7 58 3c 9c c7 1c bd 06 24 c1 bc 4a 59 b2 3c
       0.013231128 -0.0382763 -0.023576748 0.021771092
000170 00 4f ff 3a c0 dd 0d bd 36 26 85 bc 20 4f 16 3c
       0.00194785 -0.034635305 -0.016253572 0.009174138
000180 40 bf fe bb 83 c0 c0 bc ac ed 2d 3c 00 a7 e1 3b
       -0.0077742636 -0.023529297 0.010615747 0.006886363
000190 a3 29 1b 3d 42 3c e6 3c 60 06 fb bb 60 24 98 3a
       0.037881505 0.028104905 -0.007660672 0.001160752
0001a0 20 13 ff 3a 70 cc 5a bc 42 96 ac 3c 09 ae 0f 3d
       0.0019460656 -0.013354406 0.021067742 0.035078082
0001b0 c8 99 b5 bb 86 16 39 bc 70 70 1a bc 48 9d df bb
       -0.005542014 -0.011296874 -0.009426221 -0.0068241693
0001c0 12 21 c0 3c df 44 1c 3d d8 00 86 bc 48 ae f4 bb
       0.02345327 0.038151618 -0.016357824 -0.007467065
0001d0 06 48 7a bc 0c 9d 67 bc 9e ef fb 3c 38 be 94 3c
       -0.015275961 -0.014136564 0.030753907 0.01815711
0001e0 0c 2b 0a 3c 42 d2 d2 3c fc 62 3e 3c 10 59 0a bb
       0.008433115 0.025735024 0.011620279 -0.0021110214
0001f0 b3 6c 29 bd 84 68 05 bc 70 78 76 3b 49 6e 0d 3d
       -0.04136343 -0.008142594 0.0037608407 0.034529004
000200 b0 e6 b1 bc e9 83 03 3d 8e 93 fc 3c 8b 61 06 bd
       -0.021716446 0.03210822 0.030832078 -0.032807868
000210 e0 41 0a bc d0 99 3b bb 1c ff 7a bc a5 eb 1d 3d
       -0.008438557 -0.0028625615 -0.015319612 0.038554806
000220 20 a7 eb bb 1c ec 29 3c a0 7e 8b bc 80 85 a5 3b
       -0.0071915537 0.010371234 -0.017028153 0.005051315
000230 6a 31 b4 3c 3c ee 40 3c b5 f9 00 3d 70 d9 56 3b
       0.021996219 0.0117755495 0.03148814 0.0032783411
000240 09 92 0d 3d 28 e5 b1 3b 05 24 12 3d 8f 2f 08 bd
       0.034563098 0.005428929 0.035678882 -0.03324848
000250 04 85 24 3c 60 62 94 3c c6 6e 5c bc 14 e8 15 bc
       0.010041479 0.018113315 -0.013454145 -0.00914957
000260 bf b0 1a 3d 7e 16 d3 bc 2f 75 0f 3d ce 31 f0 bc
       0.037766214 -0.025767561 0.035023864 -0.029320624
000270 e2 76 d3 3c 80 c2 dc 3b 21 3d 12 3d d6 91 b2 3c
       0.025813524 0.0067370534 0.03570283 0.021798056
000280 80 3f 90 ba 7a 8d a9 3c 6c 6d 09 bd 00 52 0e bb
       -0.0011005253 0.020697344 -0.03355162 -0.0021716356
000290 18 f2 81 bc 78 50 d5 3b 88 e2 fd bc 00 6a 51 bb
       -0.01586251 0.0065098368 -0.030991808 -0.003195405
0002a0 3e b6 f2 bc a0 b6 9b bc 12 9d b8 3c 32 9c ab 3c
       -0.029627915 -0.01900798 0.022535834 0.020948503
0002b0 41 98 23 3d d8 d0 93 bc 01 48 1c 3d 51 a8 08 3d
       0.039940123 -0.01804392 0.038154606 0.033363644
0002c0 13 a5 f9 bc 11 40 1e 3d d8 fa 9c bb 00 7f 60 bb
       -0.030474221 0.038635317 -0.004790645 -0.0034255385
0002d0 56 ef c6 3c 10 7d 1a bd 60 8a 00 bc 06 a9 cb bc
       0.024284046 -0.037716925 -0.007845491 -0.02486087
0002e0 04 cf 02 bc 20 b1 0b bd 7b ae a3 bc ba 81 9f 3c
       -0.007983927 -0.034104466 -0.01998066 0.019471038
0002f0 83 5d 25 3d e0 91 80 3a 20 20 95 bc c6 36 c2 3c
       0.040372383 0.0009809099 -0.018203795 0.023707759
000300 1c df 5b 3c 80 2e 96 3a 20 2e 86 bc 82 8c bf 3c
       0.013419893 0.001145795 -0.016379416 0.023382429
000310 46 9c 0b bd ee 2f c3 bc 60 c2 4d bc 1c ec 38 3c
       -0.03408458 -0.023826566 -0.01255855 0.011286762
000320 e8 0b a0 bb 2c 62 18 3c 65 c8 28 3d b0 33 d2 bc
       -0.004884232 0.00930075 0.041206736 -0.025659412
000330 20 04 a1 ba 0a 39 c5 3c fa e7 ea 3c 7c 83 1a bd
       -0.0012284555 0.02407505 0.028675068 -0.03772305
000340 17 13 07 3d d0 d0 3a bc 73 dd 13 bd 66 73 cb 3c
       0.03297719 -0.011402324 -0.036099862 0.0248353
000350 ce ab 1c bd 79 7a 20 3d 00 e6 15 bd 9a ea c7 3c
       -0.038249783 0.0391793 -0.0365963 0.024403859
000360 e0 93 1d bc 94 1f 1b bd 14 fc 4a 3c b6 34 c8 bc
       -0.009617776 -0.037871912 0.012389202 -0.024439197
000370 a6 b1 45 bc 90 14 46 3c a4 50 41 3c 1c ed 07 bd
       -0.0120662805 0.012089863 0.011799011 -0.03318511
000380 e0 04 d5 3b 4a 3e f0 3c 00 f8 de 38 80 c4 6a bc
       0.0065008253 0.029326577 0.000106319785 -0.014329076
000390 7d 7d 06 3d 10 82 e0 bc 9c 03 3e 3c aa 9d 0f bd
       0.03283452 -0.027405769 0.01159754 -0.03506247
0003a0 66 1e 2b bc 96 88 27 bd 10 63 c3 bc e4 36 14 bc
       -0.010444259 -0.040901743 -0.023850948 -0.00904629
0003b0 f6 b6 d3 bc 40 5d 56 3b c1 97 29 3d 70 55 96 3c
       -0.025844079 0.003270939 0.04140449 0.018351287
0003c0 c0 5f 85 bb 40 b1 99 3b 7a 43 a7 3c b2 62 cb 3c
       -0.004070252 0.0046903193 0.020417918 0.024827335
0003d0 40 e4 b9 bb b0 30 09 bb b4 27 0d 3c f3 7b 02 3d
       -0.0056729615 -0.002093356 0.008615423 0.03185649
0003e0 0c 3b 27 bc 53 4f f7 bc f0 9f dc bc 14 9c 21 bc
       -0.010206949 -0.030189192 -0.026931733 -0.009863872
0003f0 c8 56 91 3c 6b 77 14 bd c3 f4 98 bc 71 a7 05 3d
       0.017741576 -0.0362467 -0.018671399 0.032630388

conv3.bias f4 [32]
000000 f2 46 da 3c 10 87 24 3c 24 b9 3c 3c 16 42 96 bc
       0.026645157 0.010041967 0.01151875 -0.01834206
000010 c0 61 57 3a a0 7c aa bb 96 f3 65 bc 18 e4 9e 3c
       0.0008216165 -0.0052028447 -0.014035126 0.019395873
000020 fa 45 f7 3c 88 59 0c bd ca 62 ea 3c c0 22 9e bc
       0.030184735 -0.03426507 0.02861156 -0.01930368
000030 81 42 1f 3d c4 2b 2a 3c ac 3c 62 bc 0c 36 2a bd
       0.038881782 0.010386411 -0.013808411 -0.04155545
000040 87 e2 27 bd a0 fc af 3b b0 b2 2f bc ea d4 da 3c
       -0.040987518 0.0053706914 -0.010723755 0.026712853
000050 9a d3 fd 3c 72 44 ef 3c bc 39 26 3c 6c cf 1f 3c
       0.030984689 0.029207442 0.010145601 0.009754043
000060 02 24 bc 3c 5a 8b c6 3c ac af 65 3c 8c 7b 00 bc
       0.022966389 0.02423637 0.014018934 -0.007841956
000070 92 d6 eb 3c 3c 78 42 3c a0 92 d1 bb 58 1f e7 bc
       0.028788839 0.011869486 -0.006395653 -0.028213188

conv4.weight f4 [27, 32, 3, 3]
000000 15 b1 63 3d b9 8e 56 3d 3c 2a 6d 3c d0 00 49 bc
       0.0555888 0.052382205 0.0144754015 -0.01226826
000010 bf 42 50 3d 86 ce c3 bc 46 be 63 bd 46 16 e5 3c
       0.050844904 -0.023902189 -0.05560138 0.027964722
000020 b2 0e f6 3c a4 d2 6e 3c 38 de 67 bd 1c ce c4 bc
       0.030036304 0.014576588 -0.05660841 -0.024024062
000030 6a f7 18 bd 25 e8 31 3d 22 74 fd bc 1d 77 17 3d
       -0.037345327 0.04343428 -0.030939166 0.03697883
000040 d3 35 0d 3d ec ef 12 bd b2 ec 2e bd 80 5f 34 3b
       0.03447516 -0.03587334 -0.0427062 0.0027522743
000050 fe 75 da bc 23 19 05 3d 80 bb 64 3a e9 f0 2b 3d
       -0.026667591 0.032494675 0.00087254494 0.041977797
000060 09 b3 62 3d 6c ac d3 bc f7 0f 1e 3d 40 d0 6d bc
       0.055346522 -0.025839053 0.038589444 -0.014514983
000070 16 e6 50 bd e6 94 af 3c 7e 8a b2 3c 24 55 31 bd
       -0.051000677 0.021433305 0.021794554 -0.043294087
000080 06 d3 f5 3c eb 5e 5c 3d 1b b1 5e bd 86 5e b9 3c
       0.03000785 0.05380146 -0.05436812 0.02262808
000090 3b b6 ee bc d6 b6 b1 3c b4 48 33 bc 9a b7 e6 3c
       -0.029139629 0.021693628 -0.010942627 0.02816372
0000a0 1b 5e 21 3d 6e 30 c5 bc 18 00 8c bc 98 2f a5 3b
       0.039396387 -0.024070945 -0.017089888 0.005041074
0000b0 78 6e 41 bd b7 b4 f6 bc 53 56 5c 3d 10 32 c7 bb
       -0.04722449 -0.030115468 0.053793263 -0.006078966
0000c0 b7 95 3f 3d 00 9c 49 b8 fa 26 ba bc a0 bb 7e bb
       0.04677364 -4.806742e-05 -0.022723664 -0.0038869157
0000d0 19 0d 48 3d 44 e8 2b bd 2a 2d 3e bd 44 6b 0c 3c
       0.048840616 -0.041969553 -0.04642979 0.008570496
0000e0 e8 e1 d2 3b e3 d1 21 3d c4 ef 03 bd 88 de d8 bc
       0.0064356215 0.039506804 -0.03221108 -0.026473299
0000f0 fc 91 1c bd 2d 8d 5d 3d 36 59 b0 3c ae 62 a0 3c
       -0.03822516 0.054089714 0.021526914 0.019578304
000100 26 2a ad bc 6b cf 55 3d 28 77 a4 3b 46 32 4b bd
       -0.021138262 0.052199762 0.0050190873 -0.04960849
000110 12 bb c9 3c 8b 03 4a bd d2 c8 9a 3c 60 7d f0 3a
       0.024625335 -0.049319785 0.018894587 0.0018347912
000120 e5 2d 6a 3d 98 e5 86 bc a1 d3 48 bd 90 7e fd bc
       0.057172675 -0.0164669 -0.04902995 -0.030944139
000130 68 84 ec bc 5f 6a 59 bd 30 42 ea bb a9 10 53 3d
       -0.02887173 -0.05307996 -0.0071490034 0.05152956
000140 94 36 3a bc 80 8d d3 ba d2 6d 52 bd 34 48 2c 3c
       -0.0113655515 -0.0016140193 -0.051374264 0.010515261
000150 ae 55 1e bd 40 71 29 ba d0 8d 01 bc 52 39 fe 3c
       -0.03865593 -0.0006463714 -0.007907346 0.031033192
000160 31 19 5b 3d 68 b8 ab 3b a0 ae f9 bb db 44 2a 3d
       0.05349082 0.005240489 -0.007619694 0.041569572
000170 e4 34 49 3c 5e 64 d7 3c f2 e8 c5 3c d0 45 3b bb
       0.0122806765 0.026292976 0.024158929 -0.0028575547
000180 10 e4 5b bd 60 bf 17 3b d2 ce 24 bd fa d9 ad bc
       -0.053684294 0.002315484 -0.0402363 -0.021222103
000190 03 0d 29 3d 41 ef 1f 3d ac 91 e9 bc c5 11 5a 3d
       0.041272175 0.03904653 -0.028511845 0.053239603
0001a0 0a 79 d2 3c 52 26 c7 3c ab 33 3e bd 4e 1c 93 bc
       0.025692482 0.024310265 -0.046435993 -0.017957833
0001b0 00 20 7e bc fe bd d3 3c 6e 3f 94 3c e5 c4 02 bd
       -0.015510559 0.025847431 0.018096652 -0.031926055
0001c0 50 ac 6c bb a0 a5 62 bb 28 78 cb 3b c1 f6 55 3d
       -0.0036113448 -0.0034583583 0.006209392 0.052237276
0001d0 fa fb b2 bc f0 67 a8 bb 8f 7e 50 3d 8d 34 4d 3d
       -0.021848667 -0.0051393434 0.050901946 0.050098944
0001e0 c4 32 2b bd 56 52 b0 3c f7 cf 50 3d 2e 88 fc 3c
       -0.04179646 0.021523636 0.05097958 0.030826654
0001f0 51 5b 20 3d 8e da 8c bc 3f 27 41 3d de b2 15 bd
       0.039149586 -0.017194059 0.04715657 -0.036547534
000200 81 18 3f 3d 9b 81 34 3d 66 b3 c1 bc 24 cd 12 bc
       0.046654228 0.044068914 -0.023645114 -0.008960042
000210 b0 ca c0 bb 84 c7 15 bd 81 5d 12 3d 87 02 47 bd
       -0.0058835372 -0.036567226 0.035733704 -0.048586395
000220 60 0f 9d bb 8e 7a d9 bc e1 b7 60 bd 48 91 00 bd
       -0.0047930926 -0.026547696 -0.05486286 -0.03138855
000230 8e 64 0e bd e7 1f 36 3d 52 48 b6 3c 18 dd d7 bb
       -0.034763865 0.04446402 0.022251282 -0.0065876357
000240 90 bf ea bc 72 8f c9 3c 2a 26 81 3c 59 33 6d bd
       -0.028655797 0.024604533 0.015765268 -0.057910297
000250 8c 44 e1 bc bf c1 0e 3d ab 75 62 3d 58 66 f7 3b
       -0.027498506 0.03485274 0.055288 0.007550042
000260 78 01 ad 3b 4e 13 96 3c 98 71 e5 bc 56 b2 1c bd
       0.005279716 0.018319752 -0.028008267 -0.038256012
000270 4e c8 ca 3c 0d 7e 5b 3d b4 c0 8b bc 85 64 3a 3d
       0.024753716 0.05358701 -0.017059661 0.04550602
000280 9f 9c 41 3d 46 08 f2 3c 2c 73 02 bd 35 69 3a bd
       0.047268506 0.02954496 -0.031848118 -0.04551049
000290 53 02 11 3d 36 bc 4a bd 99 b6 6a bd b8 c4 ee 3b
       0.035402607 -0.0494959 -0.057303045 0.0072866343
0002a0 eb e9 40 3d 4a 19 97 bc 52 7a db 3c 0e 53 c3 3c
       0.04709808 -0.018444676 0.026791725 0.023843314
0002b0 e7 22 6f bd 60 bd f8 3a e6 9f 85 bc af 72 e5 bc
       -0.058382895 0.0018977337 -0.016311597 -0.028008787
0002c0 d5 31 6d 3d dc dd 7a 3c 3a 90 a8 bc d0 d4 31 bb
       0.05790885 0.015311684 -0.020576585 -0.0027134903
0002d0 30 3a 84 bc 7c e6 23 3c fa 64 c5 3c 83 4a 46 3d
       -0.016141027 0.010003682 0.024096001 0.048410904
0002e0 65 d3 39 3d ae 60 ae 3c fe 2d ba 3c 9b 31 12 3d
       0.045367617 0.021286335 0.022727009 0.03569184
0002f0 fa ff 33 bd 28 36 9a 3b bc 86 01 3c 64 8d 00 3c
       -0.04394529 0.004706163 0.007905658 0.00784621
000300 92 a9 6f bd 3e 47 ff 3c 4c 54 28 bc b7 d8 6d 3d
       -0.058511324 0.0311619 -0.010274004 0.058068004
000310 dd 5a 47 3d 2c 6e 38 bc 1e 86 ad 3c 04 13 ab bc
       0.04867064 -0.011256736 0.021182116 -0.02088309
000320 02 ad e6 bc ee 75 b6 bc 10 d3 75 3b d0 16 1a bc
       -0.028158668 -0.02227303 0.0037509836 -0.009404853
000330 30 0d f4 bc c1 37 37 3d 6d a4 43 bd 12 b5 cc bc
       -0.029791445 0.044730905 -0.04776423 -0.024988685
000340 d0 29 60 bd 4b a5 2d 3d ec 2e a7 bc f8 2e ac bb
       -0.054727376 0.042393964 -0.020408116 -0.0052546225
000350 30 77 c7 bb 53 53 05 3d ac cf 6a bd c5 cf 5d 3d
       -0.0060872063 0.032550167 -0.057326958 0.054153223
000360 e4 e3 33 bc ea b3 f2 3c 3a e9 2a bd a3 15 44 3d
       -0.010979626 0.029626805 -0.04172633 0.047872197
000370 c0 55 ac bb 20 c2 84 ba 36 48 ac 3c c5 ed 2b 3d
       -0.0052592456 -0.0010128655 0.021030527 0.0419748
000380 ce d3 b5 3c 7a 3c c8 3c 88 60 d3 bb 98 b8 0e bc
       0.022195723 0.0244429 -0.0064507164 -0.008711003
000390 95 ea 58 3d 38 c5 b3 bc d4 b6 3a 3c 12 b1 a5 3c
       0.05295809 -0.021944627 0.011396129 0.020226035
0003a0 10 24 62 bc 86 3b ab 3c 26 b2 b9 3c 9c 13 05 3c
       -0.013802543 0.020902406 0.022667956 0.008122351
0003b0 80 86 e5 3a ff a8 16 3d 00 6c b9 38 00 41 b7 3a
       0.0017511398 0.03678226 8.841604e-05 0.0013981164
0003c0 b0 01 0c bb 2b 28 6b bd 38 f2 cf 3b 56 9b 5b bd
       -0.002136331 -0.057411354 0.0063460134 -0.053614937
0003d0 98 cb db bc 58 ad 47 bd 31 f5 17 3d 11 d0 39 3d
       -0.02683048 -0.048749298 0.037099067 0.045364443
0003e0 f1 e3 61 3d a6 af d7 3c 22 d3 92 3c b3 fe 49 3d
       0.055149022 0.026328873 0.017922942 0.049315166
0003f0 25 90 3e 3d 46 f5 c8 3c ca 2a a9 3c f8 cd 94 3b
       0.046524186 0.024531018 0.020650286 0.004541155
