src/qonnx/data/onnx/bsd300x3-espcn/nn_resize/float_model.onnx (onnx, 246487 bytes, 8 tensors)

conv4.conv.weight f4 [3, 32, 3, 3]
000000 25 8f 07 3d 36 f2 60 3d 50 48 6f bc 1a 35 62 ba
       0.033095498 0.05491849 -0.014604643 -0.00086291286
000010 ab 84 bf 3c ef 80 14 3d 64 f8 30 3c 01 7f 57 bc
       0.02337869 0.036255773 0.010801408 -0.013152839
000020 2d f0 63 bc 78 87 36 bd 04 2d 12 bd 9c 46 1d 3d
       -0.013912243 -0.044562787 -0.03568746 0.038397416
000030 0f c6 1c bd f0 ea 1a 3c f8 4a 1c 3d 66 83 ae bd
       -0.03827482 0.0094554275 0.038157433 -0.08521156
000040 9d 15 b7 3d 4a f8 72 3c 7b 3a 7e bb 5d 51 3f 3d
       0.08939669 0.014829705 -0.0038792181 0.046708453
000050 20 6c 6a bd e3 86 77 3d b7 86 ac bc 5f 60 ae bd
       -0.057232022 0.060431372 -0.02106033 -0.08514475
000060 c4 22 33 bc 2b 3c 72 3d 27 4b 77 3c 3e 1a 03 be
       -0.010933582 0.059139412 0.015093601 -0.1280298
000070 1c 39 89 bd 8d ad b6 bd f9 99 b5 bc 51 a0 ee bc
       -0.06700346 -0.08919821 -0.022168146 -0.02912918
000080 01 dc d7 3c 8a e0 2e bd 6d 19 df bd 1b 3a 8e bd
       0.026350023 -0.042694606 -0.108935215 -0.069446765
000090 4f 7f 16 3d 2a 96 43 3b 4e 96 ab 3d 7e 64 66 bc
       0.036742505 0.0029844143 0.08378278 -0.014062045
0000a0 25 6c f3 bc 57 24 13 3d 8c c4 0d bd e3 05 a3 39
       -0.029714653 0.03592333 -0.03461127 0.0003109417
0000b0 b4 ec 32 bd ad 55 07 bc a2 5c 79 3d c3 cf 24 3c
       -0.04368277 -0.008260173 0.060879357 0.0100593
0000c0 5b 7c 98 3d 4d 0d 3e 3d c0 f1 8d ba 6c 30 4b 3c
       0.07445594 0.046399403 -0.0010829493 0.012401681
0000d0 1a 6b 3c bc 25 fb b6 bc 62 ca 92 3d ca 3b 61 3c
       -0.011500144 -0.022336552 0.07167508 0.013747165
0000e0 62 c3 0c 3c e7 12 dc bc d4 3a 83 3d 71 2a 8b bd
       0.008591505 -0.026864482 0.06407705 -0.067952044
0000f0 ef ea bd bb be 49 b0 bc 2e fd fc ba 6b 8b 98 3c
       -0.0057958285 -0.021519538 -0.0019301528 0.018621167
000100 7b 84 98 3d 2f 06 13 bd f8 71 43 bb 73 9e 98 3c
       0.07447144 -0.03589457 -0.002982257 0.018630242
000110 83 26 e2 3d df e2 4c 3d 97 5a 99 bd 30 c3 41 bb
       0.11042502 0.05002105 -0.07487982 -0.0029565804
000120 f0 6c 91 bd d6 84 8f 3d 60 4a c1 bc 3f c3 d5 3b
       -0.07100856 0.07007758 -0.023595035 0.0065235193
000130 9b b3 2a 3d a5 c8 0f bc 72 89 24 bd 14 15 17 bd
       0.04167519 -0.008775865 -0.04017014 -0.036885336
000140 8d e2 d3 bc 99 36 68 3d a5 3a ab 3c 2d 1d 88 bd
       -0.025864864 0.056692693 0.020901987 -0.0664619
000150 d5 2d 0b 3d 29 56 85 3d 65 93 3f 3d c6 10 24 3d
       0.033979256 0.06510574 0.046771426 0.04005506
000160 00 1d f4 3b 96 ae 44 3d 1e f3 99 3d de d7 89 bb
       0.007449746 0.04801806 0.07517074 -0.0042066416
000170 be 70 ee 3c ce e8 cc 3b a3 eb e1 3d 56 28 b8 3c
       0.029106494 0.0062533384 0.11031272 0.022480171
000180 d8 48 a5 3c 57 fc 17 3d a1 6a 15 3d 0a 70 55 bd
       0.020176336 0.037105884 0.036478642 -0.052108802
000190 67 e6 b5 bd 5f 6e 3f 3d c3 b3 93 3d b7 60 01 3c
       -0.088818364 0.046736117 0.07212021 0.007896594
0001a0 50 ce c6 3c 0a ca 22 3d 80 2a bb bd 34 1b 15 3d
       0.0242683 0.03974346 -0.091389656 0.036402896
0001b0 ba be 13 3d a2 ad 01 3d 34 90 fe bc b6 aa 14 bc
       0.036070563 0.03165973 -0.03107462 -0.009073904
0001c0 65 60 88 3c ae 20 c7 3c f6 84 88 bc 14 53 67 3d
       0.016647527 0.024307575 -0.016664963 0.056475714
0001d0 1c dd e7 3a 45 7a 8f 3d 61 8e d7 3c 48 7a 31 bd
       0.0017689797 0.07005743 0.026313009 -0.043329507
0001e0 72 37 56 bd ae 4b 0b 3c 5a 50 0f bd b5 23 63 3c
       -0.05229897 0.00850193 -0.03498874 0.013863494
0001f0 c6 f7 9c bd cf 4b 37 3d 05 2e 22 3d b7 a7 d3 bc
       -0.076644465 0.04475003 0.03959467 -0.025836809
000200 b8 13 e7 bb 51 fe 12 3d ae c1 83 3d 97 3f a0 3d
       -0.007051911 0.035887066 0.06433426 0.07824629
000210 1b d1 71 bd 07 7a a8 3d ee 79 8e 39 d0 b4 88 3d
       -0.05903731 0.082264 0.00027175195 0.06675112
000220 6c b8 5c 3d ca 46 40 3d 19 b6 68 bc ad 50 20 3d
       0.053886816 0.04694251 -0.014203572 0.03913944
000230 02 3e 20 3c bb 7d 0d 3d 8b 57 aa bd 1d f7 54 bd
       0.009780409 0.034543734 -0.08317479 -0.051993478
000240 03 90 ef 3c 2f 9c 92 bd 45 ad 98 3c 01 b3 a7 bc
       0.029243475 -0.07158696 0.018637309 -0.020471098
000250 e9 5c 7e 3d 58 1d 11 3c 04 c9 a5 3d 04 0e fe bc
       0.062100325 0.008857094 0.08094981 -0.031012543
000260 76 29 43 bd c1 e2 c9 bd d2 5d 32 bd e2 a3 bc 3c
       -0.047646962 -0.09857703 -0.043546505 0.023027364
000270 b9 42 a1 3d 2c d8 23 b9 92 b0 61 bc a2 23 bf 3b
       0.078740545 -0.00015625422 -0.013775008 0.005833105
000280 79 f2 0d 3d 4a 30 3a bd 12 65 0b 3d c8 9b 55 bc
       0.034655068 -0.04545621 0.034031935 -0.013037629
000290 cf c5 05 3d 92 79 1e 3d a7 e8 73 3c 94 80 22 3c
       0.032659348 0.038690157 0.014887012 0.009918351
0002a0 f5 ee 41 3d 73 14 55 3d 1d 38 a4 ba 9c 25 93 bc
       0.047347028 0.052021455 -0.001252893 -0.01796227
0002b0 89 92 0f 3d 6b 8a 15 3d 95 ef e7 bb ce 6e e7 3c
       0.035051856 0.03650896 -0.007078121 0.028251078
0002c0 1a 58 d3 3c 40 98 6a bd 4e 0d e9 3b fa b3 0d bd
       0.025798846 -0.057274103 0.0071121817 -0.034595467
0002d0 b0 c6 06 3d d4 3f 39 3c f7 2d bb bd 2e 7f 4e bc
       0.032904327 0.011306722 -0.091396265 -0.012603564
0002e0 c3 47 62 3d e8 9e 46 3d 36 fe 21 bd 35 63 3d bd
       0.05524422 0.04849139 -0.039549075 -0.04623719
0002f0 3f 01 58 3c 4e 04 28 3d 27 26 00 bd 93 ea 24 3d
       0.013183891 0.04101973 -0.031286385 0.04026277
000300 85 b4 06 bc 78 80 ed 3b ae 64 fe bc 8d fe f6 bc
       -0.00822175 0.0072479807 -0.031053867 -0.030150676
000310 f8 41 06 3d ac 20 99 3c 50 34 8f 3d b4 4c 70 3c
       0.032777756 0.018692337 0.069924 0.014666725
000320 9b 11 5b bd 04 db c2 ba 84 68 d4 bc 13 35 47 bc
       -0.053483587 -0.0014866297 -0.025928743 -0.01215865
000330 64 25 db bd 9b ba 4a 3d 1a 22 a3 bc 56 c6 96 bd
       -0.10700491 0.049494367 -0.019913722 -0.07362048
000340 a3 0c 84 bd fd 7f 01 3d 6e 3f 6e bd 43 f9 57 3d
       -0.06447723 0.0316162 -0.05816596 0.05272795
000350 0a 3c 11 3d 74 11 94 bc 31 f8 58 3c a8 2f a2 3d
       0.03545765 -0.018074729 0.013242767 0.07919246
000360 22 ad da bc 55 c4 2e bc d0 42 06 bd 3e 32 da bb
       -0.026693884 -0.010666926 -0.03277856 -0.0066588214
000370 50 44 a9 bd 10 2a 10 bd c5 a0 09 bd e7 66 58 bb
       -0.08264983 -0.035196364 -0.033600587 -0.003302032
000380 2b a1 3f 3d cf de 61 3d c0 0e 04 3d 47 4f 15 bd
       0.04678456 0.055144127 0.03224063 -0.036452558
000390 fc 58 3c bc 06 ac 17 3d 1e bb 02 bd e6 8a 28 bb
       -0.011495825 0.03702929 -0.03191673 -0.0025717556
0003a0 57 66 32 bd e2 4b e7 bc bc a3 a4 3c 74 ad 81 bd
       -0.04355463 -0.028234426 0.020097606 -0.06331912
0003b0 62 38 d1 bd 75 87 aa 3d 57 91 39 3d a5 ec 62 bd
       -0.10215832 0.08326618 0.045304623 -0.055401463
0003c0 41 cf 2e bc c0 5d 32 bd 0f 1c f0 3c 22 85 6a bd
       -0.01066953 -0.04354644 0.029310254 -0.05725587
0003d0 08 9a df bb 15 3f 0c bd e3 66 b0 3c 28 ab bd 3d
       -0.006823782 -0.034239847 0.021533435 0.09261161
0003e0 a1 54 a5 bd b9 20 a3 3b c3 4d 0e 3d 32 47 23 3d
       -0.08072782 0.004978266 0.034742128 0.03986282
0003f0 1f 0a 66 3d 43 78 80 bd ff a4 2a bc d7 35 e4 3a
       0.056161996 -0.06272938 -0.010415315 0.0017411065

onnx::Conv_41 f4 [64, 3, 5, 5]
000000 4f 8b 10 3d 74 41 a5 3d 64 9a 81 3d 68 6c 6d 3d
       0.035289105 0.08069125 0.06328276 0.057964712
000010 9f 89 22 3e 9f 41 10 bd 48 ec 78 3d a6 5e 31 be
       0.15872811 -0.03521883 0.06077221 -0.17321262
000020 06 8f 96 3d 42 0c 88 bd ac cb 29 3e d5 08 60 3d
       0.07351498 -0.06642963 0.16581601 0.054695923
000030 59 5f 21 3d 10 02 1e 3e 53 a5 07 3e cd 27 5d 3d
       0.03939757 0.15430474 0.1324666 0.053993035
000040 8c 21 81 3d a2 02 24 3e 7e cc b1 bc 75 15 03 3e
       0.06305227 0.1601663 -0.021703955 0.12801154
000050 ce a2 8e 3d 9f 74 82 3d cd f5 ef 3d ac a6 9c bd
       0.06964646 0.063699 0.11716805 -0.07648978
000060 ce 48 06 3e 76 38 6f bd e0 ff 54 bd bc 7a 50 bd
       0.1311371 -0.058403455 -0.052001834 -0.0508983
000070 91 96 19 bd cb 81 a2 bc dd a4 8c bd 5d 2d 45 bd
       -0.037497107 -0.01983728 -0.06867383 -0.048138965
000080 a6 61 08 be 22 ff 1c bd 6f 29 86 bd 12 de 3a bd
       -0.133185 -0.03832925 -0.065508716 -0.04562194
000090 df 50 c3 bd 73 be 0e 3c 33 76 df bd 7e b2 72 bd
       -0.09536909 0.008712399 -0.109112166 -0.059252255
0000a0 d0 f6 5f bd f3 67 3c bd d1 11 d7 bd c3 99 d0 3c
       -0.054678738 -0.04599757 -0.10501445 0.025463944
0000b0 11 01 c8 bc 26 bb 62 bd e6 9a b0 bd 0b 6e d4 3b
       -0.024414571 -0.05535426 -0.086232945 0.0064828447
0000c0 35 30 9e bc 19 5f a6 3b ab 3d 4a bd b3 50 f6 bc
       -0.019310096 0.0050772545 -0.049375217 -0.030067777
0000d0 f0 63 a2 bd 94 41 8f bd 44 01 9b bd e8 45 be bd
       -0.07929218 -0.0699493 -0.07568601 -0.09290677
0000e0 92 8a bb bd aa b2 11 be ae 38 16 be c2 56 6a bd
       -0.091572896 -0.14228311 -0.14670059 -0.057211645
0000f0 cd 07 be bc 0e 8b 24 be f7 df 12 be bb e9 31 be
       -0.02319708 -0.1606867 -0.14343248 -0.17374317
000100 65 2d 15 be 46 d6 81 bd a4 4d 74 3c 17 67 61 bd
       -0.14568098 -0.063396975 0.014911089 -0.055029955
000110 00 d4 88 bd 53 98 16 bd 42 1c 1c bd 76 22 17 be
       -0.06681061 -0.03676636 -0.038112886 -0.1475924
000120 54 6a af bd 6a 00 8f bd 64 f3 9d bd bf bb 7a 3e
       -0.08565202 -0.06982501 -0.07712439 0.24485682
000130 a0 b4 e8 3e 60 f0 41 3e 07 3f 42 be 80 8d f9 bd
       0.45450306 0.18939352 -0.18969356 -0.12185192
000140 9c 11 14 bf f8 26 10 3e 9d 92 5c 3e db 93 ab 3e
       -0.5783937 0.14077365 0.21540304 0.33511242
000150 7d aa 7d be c3 03 4a 3d eb e7 3d 3d 15 9d 4d bf
       -0.24772067 0.049319994 0.046363752 -0.80317813
000160 0b 13 c2 be 76 1a 26 be ad 25 fd 3d ae a0 4d bd
       -0.37905154 -0.16221032 0.12360702 -0.050202064
000170 20 4c 18 3e 3c 0c c0 3d 4e bb 57 3e 9e dc 31 3e
       0.1487279 0.093773335 0.21067545 0.17369315
000180 19 13 0f 3d e4 50 30 bd 03 e0 b1 bd 88 b7 ef 3d
       0.034930322 -0.043045893 -0.08685305 0.11704928
000190 87 1b 6a bc 74 ae e3 3d af 95 ce be 24 35 a4 3d
       -0.01428879 0.11117259 -0.40348575 0.08017948
0001a0 85 21 41 be b7 50 12 3d 71 7b 78 3c 5c c9 b3 3d
       -0.18860443 0.035721507 0.0151661495 0.08778641
0001b0 09 bb 62 3e dd e3 fa 3e 03 8e d0 bd 3a d7 a9 3d
       0.22141661 0.4900197 -0.101833366 0.08293004
0001c0 06 94 b1 be 2e 40 08 be 20 3c 73 bd 07 8c fe bd
       -0.34683245 -0.13305733 -0.05938351 -0.12429052
0001d0 1c 8c 45 3e ae cc fe bd 95 93 c5 3d 3e 1a 48 3e
       0.19291729 -0.12441383 0.0964729 0.1954126
0001e0 44 24 61 3e 15 4e 8e be 57 2a e8 bd 08 67 a1 3e
       0.2198649 -0.27793947 -0.11336201 0.3152392
0001f0 08 4c 17 bd a5 f3 4e 3e f4 04 91 3e f2 6c 46 bc
       -0.036937743 0.2021013 0.2832409 -0.0121109355
000200 41 cb bf 3e a1 18 84 3d 0f 21 19 3e 5b 61 a1 3d
       0.37459758 0.0645001 0.14954017 0.07879897
000210 70 40 12 bf a4 aa 00 3e 6e 0b 2a 3e ba 19 20 be
       -0.57129574 0.12565094 0.16605923 -0.15634814
000220 03 f7 ee be fb 9d cb bf 54 b0 4a bf 5b 6a 83 be
       -0.4667283 -1.5907587 -0.79175305 -0.2566708
000230 e1 16 79 bc cd 72 31 be ff 24 e0 be ed a2 40 be
       -0.015203209 -0.1732895 -0.43778226 -0.18812151
000240 50 11 ad 3e 68 d9 4c 3e ea 2b bd bd 27 ff 80 be
       0.3380227 0.20004809 -0.092368916 -0.25194666
000250 c6 41 10 3e 9b bb d4 3e 73 d4 be 3e 1f f4 ac 3e
       0.1408759 0.41549382 0.3727146 0.3378
000260 0f 7d 8f bd 13 99 27 3e b8 ac 42 be b0 cf 18 3d
       -0.07006275 0.16366987 -0.190112 0.03730744
000270 5a 7b 8c bc 98 58 c6 3e cf a4 1b 3e ba 23 79 3d
       -0.017148662 0.38739467 0.15199588 0.060825087
000280 2e 21 f2 3e 0a e3 0d 3f ee 8a 6f 3d b2 61 35 3e
       0.4729094 0.5542456 0.058482103 0.17713049
000290 85 5e 9b be dc da 00 3e c2 fc 8c 3e cd 34 3e 3d
       -0.3034555 0.12583488 0.2753659 0.046437073
0002a0 10 a8 9c 3e 24 4f 81 3e 15 44 ee 3e 75 56 71 3c
       0.30596972 0.25255692 0.46536317 0.014730086
0002b0 6b 7c 65 3e fc 99 78 bd 75 68 68 3e 54 cc b2 bd
       0.22410743 -0.060693726 0.22696097 -0.08730379
0002c0 22 38 45 bd 48 9d fc 3d ca 73 4b 3d b3 d3 54 be
       -0.048149236 0.123346865 0.049670972 -0.20783882
0002d0 da 08 bc be 2f 92 27 be 9e 9a a7 bd e4 d1 df 3d
       -0.36725503 -0.16364358 -0.08183788 0.10928705
0002e0 67 99 f2 bb aa 10 dc bd 3d 5c 3f be 24 43 5c bd
       -0.007403541 -0.10745366 -0.1868753 -0.053774968
0002f0 96 d3 68 be 6c 97 32 3e ea 7d 4b bd f5 23 5a 3d
       -0.22736964 0.17440575 -0.049680628 0.053256948
000300 84 05 b4 3c e3 55 b8 bc fc 9e 73 be 93 aa 51 be
       0.021975286 -0.022501891 -0.23791116 -0.20475225
000310 6e 6d 8e bb 8f 45 56 be c4 36 92 3d 79 43 32 be
       -0.004346541 -0.20924972 0.07139352 -0.17408551
000320 3f c4 5a 3c 92 f5 fd bd 49 69 c9 be a2 f5 6f 3c
       0.013352453 -0.124003544 -0.3933814 0.014645966
000330 b6 02 6a be 14 28 1f be f2 6f 06 be 2d 9a 13 be
       -0.22852597 -0.15542632 -0.13128641 -0.14414282
000340 1a 61 4f be cc 8e d2 bc 59 5d 13 bd 5f f6 36 be
       -0.20251885 -0.025702856 -0.035977695 -0.1786742
000350 5d 43 0d bf c2 5a 64 be fe ac 4c bd 1d 7e 8c be
       -0.55180913 -0.22300246 -0.049969666 -0.27439967
000360 5f d3 68 be e1 7d d0 3c 66 c3 9e 3b 48 53 16 bd
       -0.22736882 0.025450649 0.0048450707 -0.036700517
000370 90 a0 d3 3d 7c f4 80 be 48 c3 09 be 53 5c b0 be
       0.10333359 -0.25186527 -0.134534 -0.34445438
000380 45 fb 87 bd 12 bf 44 be 32 9b ba bb 41 48 9b bf
       -0.06639723 -0.19213513 -0.0056947703 -1.2131425
000390 fb 1f e6 bd 09 f8 71 3e 55 50 eb 3e 7a 1b 3d be
       -0.112365685 0.23629774 0.45959726 -0.18467513
0003a0 c9 f5 bc 3e 03 e9 9c bf 05 da 92 3e b9 31 2c be
       0.3690627 -1.225861 0.2868196 -0.16815843
0003b0 07 c1 e6 be 6d bc 40 3f 1b d3 0d bf 83 0c 13 bf
       -0.45069143 0.75287515 -0.55400246 -0.57440966
0003c0 12 82 19 3e de 71 d8 3e 55 a9 50 bf 21 ba 05 bf
       0.14991024 0.42274374 -0.8150838 -0.52237135
0003d0 d1 c3 96 be f9 19 16 3e 82 3a 17 be e3 9d 03 3f
       -0.2944627 0.14658345 -0.14768413 0.5141279
0003e0 b2 8e 71 be a4 1b a4 bd f8 32 b8 3e d1 7a 0f be
       -0.2358959 -0.080130845 0.35976386 -0.14011694
0003f0 ee 86 b4 bd f8 92 cf 3e bf 48 36 be 5c 98 e0 be
       -0.08814798 0.40541816 -0.17801188 -0.4386624

onnx::Conv_42 f4 [64]
000000 ca 88 f0 3e 59 aa 71 3f 29 de ad 3e 33 3f a1 3e
       0.46979362 0.94400555 0.33958557 0.3149353
000010 32 d6 a6 3f 05 a1 e1 be 58 26 93 3f bf b1 f0 3e
       1.3034117 -0.4406816 1.1496077 0.4701061
000020 d0 29 84 bf 97 c3 86 3f d8 18 d0 bf e9 6c 88 bf
       -1.032526 1.0528439 -1.6257582 -1.0658237
000030 f6 f5 e9 3e 4a 69 84 3f 58 75 59 3d 5f 66 c1 bf
       0.45695466 1.0344632 0.053090423 -1.5109366
000040 9b da 27 3f de 4f ac bf 41 2d 5a bf 14 a4 3e 3f
       0.6556794 -1.3461874 -0.852253 0.74469113
000050 65 03 59 3f dd 25 8d bf a2 3e 27 bf b1 85 b7 bf
       0.84770805 -1.102718 -0.65329945 -1.4337674
000060 4b c3 48 3f 29 98 22 3f b7 d2 40 3f 4e 60 5c 3f
       0.78422993 0.6351343 0.75321525 0.8608445
000070 b5 26 30 3f f8 3a 51 3e 0e 6b 9f 3e 8f 76 00 3f
       0.6880906 0.20432651 0.31136364 0.50180906
000080 9b 93 82 bf 2c 37 4a 3f bf f4 a3 3f 40 a7 ab 3f
       -1.0201296 0.78990436 1.2809066 1.3410416
000090 7e c0 94 bf eb 89 4a 3f 3c 63 ae bf c0 58 77 bf
       -1.1621244 0.79116696 -1.3624034 -0.96619797
0000a0 7e f4 ab bf 3b bc 6c bf 56 99 72 3f 2b 66 7c be
       -1.3433988 -0.92474717 0.9476522 -0.24648349
0000b0 e4 97 34 3f 0a 31 24 be f0 b4 c3 bf 9e 07 5f 3f
       0.70544267 -0.16034332 -1.5289593 0.87121
0000c0 cc b5 cf bf db 82 5b bf 96 dd 17 be c6 59 08 3f
       -1.6227355 -0.85746545 -0.14830622 0.53261983
0000d0 ed 43 9d 3f 7d 47 8f 3f 6f 29 9b 3f d8 98 17 3f
       1.2286354 1.1193691 1.212202 0.59217596
0000e0 02 bb bb 3e 8c d0 9b 3f a5 11 cf bf 42 5b a4 be
       0.36666113 1.2173018 -1.617726 -0.32100874
0000f0 7e 65 84 3f 9e 61 c6 3e e7 be 9a bf 1e fe b1 3f
       1.0343473 0.3874635 -1.2089509 1.3905675

onnx::Conv_44 f4 [64, 64, 3, 3]
000000 d5 cf d7 bb 59 02 a4 bb 84 43 8e bb 38 d9 85 3b
       -0.006586055 -0.0050051627 -0.0043415446 0.0040847324
000010 98 72 43 3c 11 34 74 3a de bc 7b bb b5 ce 7f bc
       0.011929177 0.000931562 -0.0038412134 -0.015613248
000020 2e 3b 1c bc 31 25 83 3b d4 56 4a 3c 31 78 4b bb
       -0.009535594 0.0040022363 0.012349803 -0.0031046981
000030 47 da e5 3c 98 6c 21 3d 36 1c 84 3c 47 63 6f bc
       0.028058184 0.039410204 0.016126733 -0.014611072
000040 6a 25 87 3b 7b 83 8f bc 95 15 d2 bb 81 e6 1a bd
       0.004124333 -0.01751875 -0.006411264 -0.037817482
000050 21 5f ce bc df 4c 1b bc 73 92 65 bc c6 9b e8 bc
       -0.025191845 -0.009478777 -0.014011967 -0.028394591
000060 a0 f8 43 bd cf 61 77 bc 7a e4 e7 bc be c5 c3 bc
       -0.04784453 -0.015099003 -0.028307188 -0.023898002
000070 86 e2 56 3c f4 32 8d bc 77 2b 5b bc d9 11 25 bb
       0.013115531 -0.01723621 -0.013377062 -0.002518764
000080 a2 10 30 bc 77 b8 26 bc eb a3 41 3c ad ae d9 3b
       -0.010746153 -0.010175816 0.011818866 0.0066431374
000090 5d ce 51 3c d2 5e 9a 3c c9 76 0c 3c 4f 79 5c 3c
       0.0128055485 0.018844042 0.008573242 0.013456657
0000a0 cc 93 d7 3c 5a be ab 3a a9 1b 48 bb 9e 91 83 3b
       0.026315592 0.0013102994 -0.0030534065 0.0040151617
0000b0 b3 04 15 3c c6 f2 25 3c e8 1d 0d bc cf 28 a5 3c
       0.009095359 0.0101286825 -0.008613087 0.02016106
0000c0 6d 89 42 bd 2d 6c ac bc 44 8c 1d 3d be 75 1d bd
       -0.04749434 -0.021047676 0.038463846 -0.038442366
0000d0 0e d0 25 bd 47 02 ad bb 6b 0e d6 3b 7b fd 5b 3b
       -0.04048162 -0.0052798125 0.0065324805 0.0033567834
0000e0 06 e8 99 3b bd d7 30 bc 30 6f 62 ba 1a 13 7d 3c
       0.004696849 -0.0107936235 -0.0008637784 0.015446449
0000f0 e1 79 0b bc 8d ba bd ba e2 0c e0 bb 0a b0 85 bc
       -0.008512945 -0.0014475152 -0.0068374733 -0.016319294
000100 c9 82 89 bc 0f bf 9d bc b9 da 7c bc 76 95 3c 3b
       -0.016785996 -0.019256143 -0.015433007 0.002877561
000110 27 3a 92 3a d0 69 96 bb 71 2d 5c 3c 29 81 02 3c
       0.0011156247 -0.0045902506 0.013438568 0.0079653645
000120 21 fc 50 3c dd 8d b8 3c 02 0e 52 bc a8 a1 eb 3c
       0.012755425 0.022528583 -0.012820723 0.028763607
000130 71 59 f8 3a 9e a1 8a 3b a3 8b ca 3a a8 69 cb 3c
       0.0018947554 0.004230692 0.0015452992 0.024830654
000140 c2 80 08 3c 11 78 7d 3c 70 92 1a ba 2d 83 d3 3c
       0.0083314795 0.015470521 -0.00058964547 0.025819385
000150 03 cb ac 3b 6b bf 93 ba 12 3a 00 3c 18 0f 18 bb
       0.0052732243 -0.0011272257 0.007826345 -0.0023202356
000160 02 27 3b bc bb 1e 39 bc 91 31 0b bc 66 44 31 bc
       -0.011422874 -0.011298831 -0.008495704 -0.01081953
000170 1a 52 df 3b 42 c2 c2 bc 27 98 6f bc b1 15 94 bc
       0.006815207 -0.02377427 -0.014623678 -0.01807675
000180 6e 73 fc bc d6 4b 52 3c 77 dd 2c bc fa 27 0d 3d
       -0.03081676 0.0128354635 -0.010550848 0.034461953
000190 f1 6e 90 3c 79 7c ad 3c 6b ef 64 3c 2b 43 07 3d
       0.017631026 0.021177517 0.013973097 0.03302304
0001a0 a9 8f 6f 3c 4e a2 61 3c 7a 61 91 3c 4d ac 0c 3d
       0.014621654 0.013771607 0.017746676 0.034344006
0001b0 b7 74 46 3c 5e ba 3f 3c e6 d0 ea bc c4 0b c3 3b
       0.012112788 0.011702148 -0.028664064 0.0059523303
0001c0 ef 4d d3 bb ab 1e b4 bb 7b 7d e4 bb ea ee 82 bc
       -0.0064484994 -0.00549682 -0.0069729663 -0.015983064
0001d0 12 17 94 bc 1f bd 6b bd 69 cd 89 bd 6e 9c 71 bd
       -0.018077407 -0.057553407 -0.06728632 -0.058987074
0001e0 07 7d 65 bd 18 02 94 bd f6 8e 8b bd 26 ef 6d bd
       -0.05602744 -0.07226962 -0.06814377 -0.058089398
0001f0 f3 a5 5b bd 15 8b 6f bd 16 2d 9f 3c fc 0b 1d 3d
       -0.05362506 -0.05848225 0.019430678 0.038341507
000200 6f 16 7e 3c e0 ea 73 bd 4a a1 a4 bc d2 ff 1b bc
       0.015508278 -0.059550166 -0.02009644 -0.0095214415
000210 d0 07 85 3c 97 5f 93 bb ce bb 49 3d 9e 94 3a bc
       0.016239077 -0.004497479 0.04925137 -0.011387972
000220 fb ff 28 3c f7 f8 90 bc 2f c2 8a bb 5f cd ac 3b
       0.010314937 -0.01769684 -0.0042345743 0.0052735056
000230 a1 4c 98 bc 24 26 b6 3c e5 61 f4 bc 5b 64 ef ba
       -0.018591227 0.022234984 -0.029831836 -0.0018264161
000240 3a 16 5c bc f8 b5 89 3c 38 55 ca 3c 85 b3 c2 bc
       -0.013433034 0.016810402 0.024698839 -0.023767242
000250 ce e3 4b 3b ff 6c 3c 3c 73 0d 08 bc 06 e5 01 3c
       0.0031111124 0.011500596 -0.008303988 0.007928139
000260 b4 53 aa 3b 69 e3 18 bd e6 5a 02 39 08 66 a7 3b
       0.0051979665 -0.03732625 0.00012431628 0.0051085986
000270 aa f4 26 bc cb a6 00 bd 96 ef 2b bc c8 e4 22 bc
       -0.010190168 -0.031409066 -0.010494133 -0.009942241
000280 14 81 1d bc d3 34 2f bc af f1 29 3c 69 d6 44 3d
       -0.009613294 -0.010693747 0.010372563 0.04805604
000290 a9 cb 99 3c b3 2b ed 3b 85 0e f7 3a a5 bb ea 3c
       0.01877387 0.0072378754 0.0018848932 0.028653929
0002a0 66 a3 20 3d fb 8b ab 3c 1a 9f df 3c 8a 45 0f bd
       0.03921833 0.020940771 0.027297545 -0.034978427
0002b0 a7 95 fe 3b f2 f4 85 3b 35 8f 76 bc 49 0d 11 3d
       0.007769305 0.0040880376 -0.015048792 0.03541306
0002c0 f4 e7 bc bb 09 7a aa 3c 24 78 00 3d 68 21 41 3c
       -0.0057649557 0.020810144 0.031364575 0.01178775
0002d0 95 7d 37 ba 61 ae 8b bc bc 07 1c bb e0 61 23 3b
       -0.0006999609 -0.017050924 -0.002380832 0.0024930164
0002e0 97 77 04 bc 8a 54 d7 ba 22 e2 21 bc 92 7a 03 3b
       -0.008085153 -0.0016428393 -0.009880574 0.0020062071
0002f0 52 b3 b2 39 39 c4 e1 3b 1f 08 10 3c ad f4 0d bd
       0.0003408441 0.0068898466 0.008790999 -0.03465717
000300 1c b1 06 3c 76 bc 6f 3c 73 17 16 bb 41 99 3d bc
       0.008220937 0.014632335 -0.002290216 -0.011572183
000310 06 53 9a 3b 2d 79 03 3b d2 5e b5 bc 19 f5 56 bc
       0.004709604 0.002006124 -0.02213994 -0.013119959
000320 7a dd d7 bc b5 bb 1f bc 2d 91 e9 3c f1 71 67 3b
       -0.026350725 -0.009749343 0.028511608 0.0035315717
000330 95 00 54 bc d0 03 83 bc 40 73 52 bd 0c ae 14 bd
       -0.012939592 -0.015993029 -0.051379442 -0.036298797
000340 85 68 06 3c 4d 7f eb bc f0 4f e2 bb 05 60 ec 3c
       0.00820363 -0.028747225 -0.006906502 0.02885438
000350 0d 93 d1 3b b0 1c 10 bd e1 43 2e bc 9f 75 d3 bc
       0.0063957036 -0.03518361 -0.010636301 -0.025812922
000360 6d 26 d2 bb 66 c3 3d 3c 77 52 71 3c bf ec 9e bc
       -0.006413272 0.011582231 0.014729134 -0.019399999
000370 f9 25 02 bc 16 b1 93 3b 60 12 5c bc 1d 9f 9f bb
       -0.007943624 0.0045071943 -0.013432115 -0.0048712627
000380 83 4e 5b 3b ec cf 02 bd 13 ff 98 ba b2 02 ae bb
       0.0033463545 -0.03193657 -0.0011672698 -0.00531038
000390 de 38 ca bc 67 6f b7 ba ad 4d 94 bc 3d ad 81 bc
       -0.02468532 -0.0013994992 -0.018103445 -0.015829677
0003a0 9a ac 1e 3b d8 71 14 bc eb d6 41 bc 0b a6 78 bd
       0.0024211765 -0.009060346 -0.011831026 -0.060705226
0003b0 29 d9 59 bd 25 e1 53 3c 63 51 45 bb 94 34 eb bb
       -0.053185616 0.012932097 -0.0030108325 -0.0071778987
0003c0 ec 17 69 bc 9b de 8f bc c9 a6 80 bb 2c b7 a6 bc
       -0.014226895 -0.017562201 -0.0039261323 -0.020351015
0003d0 54 12 b9 bc fb 7f 77 3c 25 2b 28 3d 64 e0 db 3b
       -0.022591747 0.0151061965 0.04105677 0.006710099
0003e0 5a 7f a0 bc fc 73 4b bd 8b 31 13 bc 57 72 36 3c
       -0.019591976 -0.04967116 -0.00898398 0.011135659
0003f0 a6 38 2b 3d fa 69 bc bc c1 54 ea 3c cd b4 75 bd
       0.04180207 -0.022999752 0.028604867 -0.05998688

onnx::Conv_45 f4 [64]
000000 d9 82 8c 3e 40 dd 6c 3e 50 80 02 3f 5c 12 a7 3e
       0.2744358 0.23131275 0.5097704 0.32631195
000010 da 76 34 3e ad f4 19 bf bd 81 ca bf bb 85 b6 3d
       0.17623463 -0.6013897 -1.5820843 0.08912226
000020 64 9b c1 3f 2c 5f c2 be 74 a4 a4 be ee 89 8c 3f
       1.5125546 -0.37963235 -0.32156718 1.0979593
000030 05 98 87 3e eb 29 ff bf 36 79 8f bd 85 e4 1b bf
       0.2648317 -1.9934667 -0.07005541 -0.6089557
000040 c0 8a 0e 3f 4d d0 71 bf 6a 82 e2 be 05 f2 95 be
       0.55680466 -0.94458467 -0.44240123 -0.2928621
000050 55 2d 1a bf bd 7b 37 bf 33 8d 29 3f 5c 2c 56 3c
       -0.6022542 -0.71673185 0.6623108 0.0130721
000060 ed 3c 37 bf aa 71 8f 3e 2c 48 05 3f 7d 23 0d 3f
       -0.7157734 0.28016406 0.5206325 0.55132276
000070 c6 4f f3 3e f1 e8 38 3f 21 fd e1 be bf cc 6e bf
       0.475218 0.7223044 -0.44138435 -0.9328117
000080 30 4c 83 3f 20 60 ff 3e 12 05 93 bf 98 1c d8 3c
       1.0257626 0.49878025 -1.1485922 0.026380822
000090 12 d6 85 bf ce d4 6f bf b6 a9 47 3e 22 30 c0 bd
       -1.0455954 -0.9368409 0.19498333 -0.093841806
0000a0 19 77 0f be 79 f1 42 be 21 55 3e 3f 0a d7 1b be
       -0.14010276 -0.19037427 0.74348646 -0.1521875
0000b0 43 e6 af 3e cf d5 bc 3e 71 bc 8f bf 5c ff 66 3e
       0.34355363 0.36881873 -1.1229383 0.2255835
0000c0 72 3f 8e bf f8 93 77 be 44 5c 49 bf be 5c 8b 3d
       -1.1113112 -0.2417754 -0.7865641 0.068047985
0000d0 53 a9 57 be b0 72 bf bf d1 3d f7 bf 30 7c e9 3c
       -0.21060686 -1.4956875 -1.931574 0.0285016
0000e0 02 32 4f 3f 1a 37 bb bf 4d 0c 6f 3e 5a 87 7c bf
       0.8093568 -1.4626191 0.23344536 -0.9864403
0000f0 0b 77 aa bf 6f 47 71 3e 4a f8 ee 3e 00 a5 1b bf
       -1.3317579 0.23562406 0.46673805 -0.60798645

onnx::Conv_47 f4 [32, 64, 3, 3]
000000 2c 26 06 bc 9e 62 30 3b b8 33 ab bc cf f9 a5 3a
       -0.008187812 0.002691425 -0.020898685 0.001266295
000010 47 db 47 3c e5 e1 3a 3c 3d 50 aa bb 93 63 83 ba
       0.012198276 0.0114063965 -0.0051975534 -0.0010024182
000020 3d 10 01 bb 67 76 12 bc fb d1 07 3c a6 4c 9d 3a
       -0.0019693517 -0.008939362 0.008289809 0.0012000992
000030 86 71 9b b9 6a 8a 3c 3c 5a 62 81 3a 53 08 47 bc
       -0.00029648485 0.01150761 0.000987123 -0.012147981
000040 3a 26 21 bc 9e 8e 27 3b 91 e8 3c 3a 5e 03 b4 3b
       -0.009835774 0.0025567184 0.0007206286 0.0054935655
000050 91 7b 48 3c c7 17 dd 3b b1 01 8a 3a 42 c5 4a b9
       0.012236492 0.0067472192 0.0010529069 -0.00019337705
000060 1d 42 0e bc a7 4f 1d 3c d7 07 c5 3a aa 0f 41 3b
       -0.008682755 0.00960151 0.0015032244 0.00294588
000070 57 03 25 bb fe 9e 28 bc cf 3b 2f 3b 7e 54 1f bb
       -0.0025178993 -0.010291813 0.002673853 -0.0024311836
000080 df aa 8e 3a 16 26 b4 bb 67 73 3c bc 18 86 91 bb
       0.0010884664 -0.0054977043 -0.011502123 -0.004441034
000090 0d 16 34 bc f3 af ac bb dd 5d 2c bc 7a 0e f4 bb
       -0.010991585 -0.005269998 -0.010520426 -0.007448015
0000a0 76 f1 a5 bb 23 c0 d5 bb c5 3b 7a bc d4 15 51 bc
       -0.005064185 -0.0065231486 -0.015273039 -0.012761552
0000b0 a1 72 19 bc f8 6d 2a bc c6 e4 59 3c 68 71 43 3c
       -0.009365709 -0.010402195 0.013299173 0.011928894
0000c0 3d e9 ae bb 6b 88 ba 3b ab 9d 44 3b 22 8a 29 bc
       -0.0053378628 0.005692532 0.0030001204 -0.010347875
0000d0 f8 5e a5 3a d9 df 26 b7 d3 3a 91 3b ac 15 76 3b
       0.0012616804 -9.94649e-06 0.004432061 0.0037549539
0000e0 e9 cd 07 3c e1 13 cf ba 70 c1 34 3a 5f 42 6d bc
       0.008288839 -0.0015798771 0.00068952795 -0.014481156
0000f0 e4 b1 90 bc 0b 8d df bb 77 76 d3 ba 56 bf 35 3c
       -0.01766295 -0.0068222336 -0.0016133328 0.011092981
000100 d3 3b 62 3c 9f 54 3a 3c c2 22 8b 3c 4f c9 80 3c
       0.0138082085 0.011372714 0.016984347 0.015720991
000110 f8 89 c2 3c 3f 73 51 3c 43 3c 64 3c 71 5a e8 ba
       0.02374743 0.0127838245 0.013930383 -0.0017727149
000120 7b c5 45 3c 91 42 1e 3c fc 56 d3 3b ec f3 3a 3c
       0.012071009 0.009659425 0.0064495783 0.011410695
000130 6e f3 bd 3b 82 fc 48 3c c6 49 fc 3b 98 24 9a 3a
       0.0057968413 0.012267234 0.007699224 0.0011760173
000140 28 3d 8e 3c bc 79 99 bb 39 78 9c b9 52 3f 9a bb
       0.017363146 -0.0046837013 -0.00029844212 -0.0047072554
000150 71 46 16 bc 16 31 47 bc b5 0a df ba e1 62 e4 b9
       -0.009172068 -0.012157699 -0.0017016741 -0.0004356122
000160 ef f9 89 bb 86 b9 92 3b e3 d8 db 3b 6a 10 90 3c
       -0.0042107026 0.0044776825 0.0067092045 0.017585952
000170 63 b3 a4 3a 01 e6 64 3c 87 fb b8 3c 73 19 9e 3c
       0.0012565668 0.013970853 0.022580875 0.019299245
000180 ef 6b fd bb 83 31 4a 3b 66 8d 16 bc 7f 11 24 3a
       -0.007733814 0.0030852265 -0.009188985 0.00062587106
000190 05 f3 c6 bb a3 b2 f6 3a fd 21 2e 3c b6 ad ee 3b
       -0.0060714507 0.0018821548 0.010628221 0.0072838916
0001a0 56 30 98 3b 60 4c 99 bb 51 15 54 3b 4e 15 d9 3b
       0.004644434 -0.004678294 0.0032361338 0.006624854
0001b0 39 e9 2e 3b 72 d5 cb bb 7f 32 e4 ba c9 26 6e bc
       0.0026689305 -0.006220513 -0.0017410069 -0.014535614
0001c0 33 57 89 bb c4 8d 22 bb 46 80 8a 3b 02 b2 bc 3b
       -0.004191303 -0.0024803737 0.004226717 0.005758525
0001d0 69 c6 c1 3a a1 f1 85 3c 10 bc 9b 3c 79 ea 99 3c
       0.0014783862 0.01635057 0.019010574 0.018788563
0001e0 95 f1 b4 3b c3 1d 9e 3b 4d bf cb 3b f0 ab 34 3c
       0.005521963 0.004825325 0.006217873 0.011027321
0001f0 85 0b af 3b 6d d4 04 3c 37 54 6d bc 38 bd 03 3b
       0.0053419494 0.008107287 -0.01448541 0.0020101797
000200 57 cd 8d 3b cb d1 90 3b 48 94 4d bb b4 9b 56 bb
       0.004327457 0.0044195405 -0.00313689 -0.0032746615
000210 3e 4c 30 bc bc 9d 6e bb 6b b1 85 ba 3a 4e e0 bb
       -0.010760365 -0.0036409935 -0.0010199969 -0.006845263
000220 3a a5 cf ba 0c 71 cc bb 91 f3 38 bc 1c bb b0 3b
       -0.0015842088 -0.006239062 -0.0112885395 0.005393399
000230 fb 17 bb bc 06 2d c0 bb b7 3d 33 bc 71 80 68 bc
       -0.022838583 -0.005864742 -0.010940007 -0.014190779
000240 2e 76 b9 bb 2f ac d8 3a 54 88 59 bb b1 40 fd bb
       -0.00565984 0.0016530807 -0.003319283 -0.007728659
000250 7a 4d 14 3b 47 e3 19 bc 23 4e f0 bb a2 de 9b bb
       0.0022629187 -0.009392566 -0.0073335334 -0.0047567645
000260 d2 c6 2d 39 b4 06 fd 3b 14 ec 1d 3c 7c 07 19 3b
       0.00016572632 0.0077217463 0.009638805 0.0023350408
000270 37 06 36 bb 93 33 d6 3b 78 69 18 3c 6f 9a f5 ba
       -0.00277747 0.00653691 0.009302489 -0.0018738041
000280 83 71 3e 3c bd f3 17 3c eb 83 36 bc e1 c6 cc bb
       0.011623743 0.00927442 -0.01113985 -0.006249294
000290 c3 22 fd bb 72 30 59 bb 6f cd 49 bc b3 7d f3 ba
       -0.007725091 -0.0033140448 -0.012317046 -0.001857689
0002a0 bc 0d 18 bc fc 03 0f 3b 83 43 44 bc 50 22 a9 bc
       -0.009280618 0.0021822443 -0.011978987 -0.020646244
0002b0 0e 04 d2 bc f6 ad b3 bc be f0 7a bc 5c 8c 0e bc
       -0.025636699 -0.021933537 -0.0153161865 -0.0087004565
0002c0 f3 1a c6 bc 89 4b 69 bc b3 a8 c8 bc 37 58 d0 bc
       -0.024182772 -0.0142392 -0.024494505 -0.02543269
0002d0 7e a5 32 3c 05 67 ac ba 4f df f7 bc 63 de 98 bb
       0.010903714 -0.0013153261 -0.030257849 -0.0046651824
0002e0 43 26 83 bc cf 80 d9 bb ef 51 29 bb 84 65 b5 b9
       -0.016009456 -0.0066376696 -0.002583619 -0.00034598645
0002f0 8b 8c 90 bb d7 61 75 bb d9 35 0f 3c 25 50 d3 3b
       -0.0044112853 -0.003744235 0.008740866 0.006448763
000300 fd 15 65 bc b7 a6 1e bc be 25 1d 3c b0 f1 39 3c
       -0.013982293 -0.009683303 0.009591518 0.011349127
000310 de 69 8a 3b e6 1e 72 3a 54 be 37 bc 00 6e 8e bc
       0.004224046 0.00092361716 -0.011214811 -0.017386436
000320 3f a1 92 bc bf a8 80 bc f2 b9 8b bc e2 fc 4c bc
       -0.017899154 -0.015705464 -0.01705644 -0.012511464
000330 8a 26 5c bc 06 1a 5c bc 7d 27 3e bc 5a 4e 67 3c
       -0.013436923 -0.013433939 -0.011606094 0.014117802
000340 54 46 d4 3b d0 f1 0e 3c 23 19 16 3c 97 ac b0 bb
       0.0064781103 0.008724645 0.0091612665 -0.005391668
000350 24 dd fa 3a 30 d0 32 bc 64 c5 07 3c b4 1c be 3b
       0.0019139391 -0.010913894 0.008286808 0.0058017615
000360 39 90 33 3c e6 71 84 ba f9 67 7d 3a fb 72 73 bb
       0.010959678 -0.0010104745 0.0009666677 -0.003714739
000370 96 0d a9 bb a9 d9 8c 3c 29 c5 bc bb 9b da 29 bc
       -0.0051590903 0.017193632 -0.005760808 -0.010367061
000380 66 65 20 3b 5a b8 83 bc ea 4d c8 bb 66 4e 88 3b
       0.00244745 -0.016079117 -0.0061128037 0.0041597364
000390 9b fd 6d bb 9d b7 93 3b ad f4 1f b9 76 dd be ba
       -0.003631449 0.0045079724 -0.0001525457 -0.001456185
0003a0 12 f6 33 39 97 5c 9c bc be 1e 9c bc c7 3a 2b bc
       0.00017162439 -0.019087119 -0.019057628 -0.010451025
0003b0 3e 76 d7 bb 83 fc 0f bc 15 cb 22 bc a1 df 87 3a
       -0.006575375 -0.008788231 -0.009936114 0.0010366329
0003c0 42 2c 03 bc 95 af c3 bb 22 c5 b7 bb 10 66 a3 bb
       -0.008006157 -0.0059718587 -0.005608217 -0.004986532
0003d0 52 73 04 bc c9 b9 5e 39 79 73 38 bc ed e3 22 bb
       -0.008084135 0.0002124078 -0.011258 -0.0024855093
0003e0 26 c8 12 bb d2 6d f3 bb 8d 40 26 bb 83 c4 23 bc
       -0.002239713 -0.007428863 -0.0025368065 -0.0099955825
0003f0 cc 43 ac 3a 82 71 66 3c 27 4c 1c 3b fd b9 2f 3c
       0.0013142764 0.014065148 0.0023849101 0.010725495

onnx::Conv_48 f4 [32]
000000 9c 2c a0 bd f1 a6 9c 3e e4 1b 4f be cc 50 0c 3e
       -0.078210086 0.30596116 -0.20225483 0.13702697
000010 3c cc d9 3d de 8f ea 3d ec b8 5b bf e6 45 ae bc
       0.10634658 0.11453222 -0.85829043 -0.021273565
000020 b9 2d 30 be 64 fa 1c 3f 61 ea ff 3e 10 3a d9 bc
       -0.17204942 0.61319566 0.49983504 -0.026516944
000030 8d c0 14 3f ec b3 85 3d 28 0e d9 3e 22 dc 2e 3f
       0.5810631 0.06528458 0.42393613 0.68304646
000040 f0 89 0b 3f 76 15 85 3d 30 0f 5c 3f 6c 17 54 bd
       0.5450735 0.06498234 0.85960674 -0.05178015
000050 80 f3 8a ba 22 4a 38 be 00 85 d3 3d 98 a1 12 bd
       -0.0010601133 -0.1799703 0.10328102 -0.03579864
000060 14 ca 7a bf a0 a7 1a bd ba 48 24 be a0 77 01 3e
       -0.97964597 -0.037757516 -0.16043368 0.1264329
000070 98 23 aa be 1a bc ca 3e c0 b5 d6 3d 28 38 f7 3d
       -0.3323028 0.39596635 0.10483885 0.12071258

/conv4/interp/Constant_output_0 f4 [4]
000000 00 00 80 3f 00 00 80 3f 00 00 00 40 00 00 00 40
       1.0 1.0 2.0 2.0
