src/qonnx/data/onnx/bsd300x3-espcn/nn_resize/quant_model.onnx (onnx, 254227 bytes, 25 tensors)

conv1.bias f4 [64]
0.00025338362 -0.00039790137 -0.0018320244 0.00058946974 0.0022670843 -0.0003037096 0.00033329843 0.00053789595
-0.0015255961 0.0026022992 0.0008407712 -0.0001098721 0.002398167 -0.000683531 -0.0017260509 0.00074150786
-0.0023524484 0.0007305803 2.666418e-05 0.0016266024 0.0019267628 0.0007862174 0.0014982477 7.771984e-05
0.0015279881 0.00018306627 -0.0013906162 0.0010053725 0.0003227198 -0.0008886801 -0.00037918595 0.0006910859
-8.2282946e-05 -0.00045017546 -0.00019336541 0.0009098182 0.0001588557 0.00061545905 -0.0011714472 -0.00015524216
-0.0008793716 -0.00074963697 -0.0017856248 0.00063869095 -0.00049598207 0.0002673479 -0.00035450008 -0.00021580666
-0.00033086268 0.00018140892 0.0018190286 -0.0012133074 0.0006152077 -0.00047496916 0.00052387087 0.001510907
-0.0001734157 0.002676617 -0.0021957585 -0.00015275461 -0.00010128143 0.00021640059 -0.0018056994 -0.0016625846
00000000: 93d8 8439 6b9d d0b9 8a20 f0ba a586 1a3a
00000010: 5d93 143b 363b 9fb9 8fbe ae39 9601 0d3a
00000020: 83f6 c7ba 568b 2a3b 3367 5c3a 226b e6b8
00000030: 912a 1d3b fd2e 33ba a83c e2ba c061 423a
00000040: 892b 1abb 6a84 3f3a e4ac df37 b833 d53a
00000050: 6e8b fc3a 281a 4e3a da60 c43a 85fd a238
00000060: c646 c83a 7af5 3f39 5645 b6ba b4c6 833a
00000070: b832 a939 50f6 68ba 7acd c6b9 fd29 353a
00000080: 528f acb8 8705 ecb9 22c2 4ab9 de80 6e3a
00000090: 8192 2639 c256 213a 3f8b 99ba 80c8 22b9
000000a0: a185 66ba 4983 44ba a00b eaba d36d 273a
000000b0: cb04 02ba d42a 8c39 32dc b9b9 294a 62b9
000000c0: a377 adb9 9638 3e39 796c ee3a d707 9fba
000000d0: e445 213a 4805 f9b9 6154 093a a009 c63a
000000e0: ecd6 35b9 2e6a 2f3b b7e6 0fbb c12c 20b9
000000f0: 0e67 d4b8 97e9 6239 38ad ecba 15eb d9ba

conv2.bias f4 [64]
-0.00015454479 -7.39408e-05 6.7474524e-05 -0.00018029462 0.00010092242 0.00019571735 -4.3420478e-05 0.00012195335
0.0004718767 0.0020045517 0.00090902386 -4.9761547e-05 2.9575592e-06 -0.00019623069 -7.283738e-05 -0.000507951
-0.00013040821 5.8516656e-05 -0.0002135975 0.00021018533 -5.1052444e-05 4.57772e-05 -0.00011223086 0.00011297521
8.708582e-05 -8.6251384e-05 0.00024397382 -0.00022890556 -0.00020824252 0.00018726614 4.72056e-05 -0.00019645992
-4.4555463e-06 -3.7166712e-05 -0.0007158799 2.0357917e-05 -9.4445495e-05 -3.721214e-05 0.00017467422 -0.00011285022
0.00013696148 -0.0006808974 -6.538814e-05 4.4597567e-05 -9.0289876e-05 -5.617394e-06 -2.1456448e-05 -0.00011529655
-1.7747201e-05 -0.0001667487 1.4051013e-05 -0.00037303736 9.782226e-05 0.0004696851 0.00015943004 0.00033127572
6.4194683e-06 -0.00013239562 0.00011511992 -4.3276435e-05 -4.3204174e-05 -0.00020051224 -7.713653e-06 4.604706e-05
00000000: 4d0d 22b9 aa10 9bb8 1c81 8d38 780d 3db9
00000010: 50a6 d338 7a39 4d39 621e 36b8 35c1 ff38
00000020: 3866 f739 cc5e 033b 8f4b 6e3a 0eb7 50b8
00000030: 7b7a 4636 46c3 4db9 45c0 98b8 0428 05ba
00000040: 30be 08b9 c86f 7538 24f9 5fb9 3265 5c39
00000050: 2521 56b8 e500 4038 7c5d ebb8 1bed ec38
00000060: d8a1 b638 dce1 b4b8 39d3 7f39 5e06 70b9
00000070: ad5b 5ab9 df5c 4439 a1fe 4538 cf00 4eb9
00000080: da80 95b6 74e3 1bb8 e3a9 3bba 4bc6 aa37
00000090: 0a11 c6b8 3b14 1cb8 c128 3739 00aa ecb8
000000a0: 519d 0f39 407e 32ba fe20 89b8 460e 3b38
000000b0: 025a bdb8 0c7d bcb6 5ffd b3b7 5dcb f1b8
000000c0: d3df 94b7 43d9 2eb9 a4bc 6b37 3a94 c3b9
000000d0: ed25 cd38 1140 f639 ad2c 2739 13af ad39
000000e0: d066 d736 aed3 0ab9 896c f138 b883 35b8
000000f0: 2136 35b8 9840 52b9 e369 01b7 a722 4138

conv3.bias f4 [32]
0.00034296702 -0.0006961321 -0.0027616164 -0.00059114886 0.003132639 0.000104343126 0.00017164012 8.8470006e-05
0.0022170625 -0.00081672164 -0.00012256735 0.00011009828 -0.00030578318 -0.0007909267 6.637011e-05 0.00024726652
0.00087744487 0.0020025356 0.00026923127 -0.0006605156 0.0003222473 0.0007860554 -0.0011176114 4.474721e-05
0.00068684714 5.1887815e-05 0.00024946211 -0.0015342598 -7.760445e-05 0.00193802 -0.0001153758 1.6346561e-05
00000000: 41d0 b339 a27c 36ba 3cfc 34bb 54f7 1aba
00000010: f64c 4d3b cad2 da38 4bfa 3339 f988 b938
00000020: 234c 113b 4319 56ba 6c85 00b9 90e4 e638
00000030: 8651 a0b9 3156 4fba 2e30 8b38 8da3 8139
00000040: 5404 663a f93c 033b 9c27 8d39 7426 2dba
00000050: 4df3 a839 490f 4e3a d17c 92ba f3ae 3b38
00000060: 880d 343a 1ea2 5938 3dca 8239 3719 c9ba
00000070: 92bf a2b8 2905 fe3a e9f5 f1b8 f91f 8937

conv4.conv.bias f4 [3]
0.2245422 0.22763903 0.14024422
00000000: 64ee 653e 351a 693e 2e9c 0f3e

bn1.weight f4 [64]
0.6231858 0.3151768 0.16686979 0.3587111 0.37087318 0.20981024 0.1359668 0.7006687
0.2985654 0.29691893 0.22673862 0.40656668 0.56288 0.810894 0.3905485 0.27122316
0.38779408 0.34740466 0.0005764644 0.20099649 0.1613994 0.40455607 0.30748147 0.046134476
0.32780337 0.2919842 0.34762037 0.46401262 0.19193704 0.1271964 0.58139354 0.57565314
0.39107385 0.22194819 0.28550726 0.228411 0.26423672 0.5819169 0.2209399 0.21786655
0.027041191 0.40864322 0.6330843 0.2281052 0.2965451 0.2274946 0.31138372 0.17968644
0.24864587 0.16259672 0.768957 0.16842128 0.358981 0.3540263 0.45636168 0.46869004
0.25393817 0.4671328 0.6535376 0.11883313 0.40466675 0.40863425 0.24405968 0.10587623
00000000: 1b89 1f3f db5e a13e eadf 2a3e fba8 b73e
00000010: 17e3 bd3e 7fd8 563e e13a 0b3e 065f 333f
00000020: 90dd 983e c205 983e 2b2e 683e 8229 d03e
00000030: e718 103f c096 4f3f f9f5 c73e c3dd 8a3e
00000040: f28c c63e 06df b13e df1d 173a 06d2 4d3e
00000050: e245 253e f921 cf3e 366e 9d3e 81f7 3c3d
00000060: d8d5 a73e f47e 953e 4cfb b13e 1093 ed3e
00000070: 258b 443e c63f 023e 35d6 143f 015e 133f
00000080: d53a c83e 6346 633e 022e 923e 93e4 693e
00000090: 094a 873e 82f8 143f 123e 623e 6918 5f3e
000000a0: 7d85 dd3c af39 d13e d011 223f 6994 693e
000000b0: c2d4 973e 58f4 683e b06d 9f3e b9ff 373e
000000c0: 069d 7e3e c17f 263e 5eda 443f a176 2c3e
000000d0: 5ccc b73e ef42 b53e 3da8 e93e 24f8 ef3e
000000e0: 2f04 823e 082c ef3e 3d4e 273f c95e f33d
000000f0: 7b30 cf3e 8238 d13e c8ea 793e a3d5 d83d

bn1.bias f4 [64]
0.07151832 -0.032158934 0.98751235 -0.0050993175 0.28735313 0.0801938 -0.018737512 -0.3018458
0.18085997 0.16645613 0.8764457 -0.02151135 -0.6531605 -0.109387584 -0.09014553 -0.056692477
-0.5097984 -0.36229062 0.07093171 0.7998016 0.06283169 -0.10728185 -0.27308002 -0.09676434
-0.019662417 0.105787195 -0.03288664 0.22852865 0.026028788 0.07931967 -0.79219776 -0.27092147
-0.4326368 -0.11153146 -0.029571343 0.5599668 0.53899133 -0.41342962 0.8420488 -0.34065092
-0.054896362 -0.4052258 -0.6857048 0.84228235 -0.24627484 0.83001894 0.15789063 -0.1385978
0.09009034 0.059139803 -0.353088 -0.2246889 0.27189332 0.14384128 -0.58941305 -0.5532276
-0.18397394 -0.6697155 0.14275497 0.055332825 -0.04648996 -0.32433778 0.44350433 0.025400545
00000000: 3278 923d 16b9 03bd 9ccd 7c3f 2d18 a7bb
00000010: f31f 933e a63c a43d 697f 99bc 888b 9abe
00000020: 5b33 393e 7a73 2a3e bf5e 603f 9238 b0bc
00000030: 8735 27bf 9906 e0bd 389e b8bd 5f36 68bd
00000040: 2682 02bf 287e b9be a544 913d ccbf 4c3f
00000050: e7ad 803d 96b6 dbbd 25d1 8bbe 622c c6bd
00000060: 1413 a1bc f5a6 d83d 24b4 06bd 6a03 6a3e
00000070: 533a d53c 5a72 a23d 79cd 4abf 38b6 8abe
00000080: 9282 ddbe 9b6a e4bd 9a3f f2bc fc59 0f3f
00000090: 56fb 093f 0cad d3be 8390 573f cc69 aebe
000000a0: 02db 60bd c279 cfbe 5a8a 2fbf d19f 573f
000000b0: 792f 7cbe 1f7c 543f 15ae 213e 95ec 0dbe
000000c0: 4981 b83d 943c 723d f3c7 b4be d914 66be
000000d0: 9a35 8b3e 214b 133e c6e3 16bf 53a0 0dbf
000000e0: aa63 3cbe 7a72 2bbf 5c2e 123e aca4 623d
000000f0: 426c 3ebd 9a0f a6be 0013 e33e ce14 d03c

bn1.running_mean f4 [64]
-0.042744644 -0.005496955 -0.0002492334 0.0005760121 -0.08699021 0.055276718 -0.15934359 -0.2998223
0.1523483 0.28625607 -0.0006975339 -0.12805769 0.514114 -0.19141105 0.059461083 -0.106297396
-0.33964005 -0.051947605 -0.004568368 -0.0026249483 0.058231562 -0.20711452 0.09725466 0.1457866
0.0025902854 -0.0012541071 0.023057872 0.26451662 0.0049106837 -0.022506762 0.17847644 0.415251
0.22018048 0.03171613 0.009963929 0.0063820356 0.00012798495 -0.44721493 0.0009162296 -0.058774866
-0.04787901 -0.17489721 -0.25085795 0.00033813002 -0.1276563 -0.0005896818 0.00045667775 0.08484867
0.11049286 0.06213031 -0.33597285 -0.086451516 0.12377483 -0.046535652 -0.3922336 0.18713613
0.024678998 0.37859613 -0.2756495 0.040875718 0.22087036 -0.22799014 0.0010264373 0.024699187
00000000: 0215 2fbd cd1f b4bb 8aab 82b9 85ff 163a
00000010: ec27 b2bd d769 623d f72a 23be 4f82 99be
00000020: 3101 1c3e 2890 923e b5da 36ba 8e21 03be
00000030: fa9c 033f 4201 44be 778d 733d 73b2 d9bd
00000040: 4de5 adbe 03c7 54bd 40b2 95bb 5307 2cbb
00000050: 3884 6e3d d415 54be 742d c73d 1549 153e
00000060: c7c1 293b da60 a4ba dde3 bc3c b96e 873e
00000070: cde9 a03b 1a60 b8bc 87c2 363e c79b d43e
00000080: fe76 613e c6e8 013d bf3f 233c 6520 d13b
00000090: b333 0639 5bf9 e4be 212f 703a eabd 70bd
000000a0: c81c 44bd 4118 33be 7470 80be 0b47 b139
000000b0: 55b8 02be e094 1aba 406e ef39 24c5 ad3d
000000c0: 154a e23d 5a7c 7e3d a204 acbe 7e0d b1bd
000000d0: a87d fd3d 2b9c 3ebd d8d2 c8be 9da0 3f3e
000000e0: 9c2b ca3c 5ad7 c13e ee21 8dbe 4c6d 273d
000000f0: d72b 623e 3f76 69be 8589 863a f355 ca3c

bn1.running_var f4 [64]
0.05050017 0.0039152987 0.0011953703 0.0014130684 0.0053510945 0.0101853525 0.021334251 0.032209307
0.012081164 0.031454533 0.0002852164 0.050531343 0.06797906 0.015333201 0.008007982 0.009370027
0.035142016 0.020763876 0.032763407 0.0005085062 0.012016773 0.03681938 0.014699421 0.09057156
0.0013642509 0.023549492 0.0027048388 0.020827709 0.0011612505 0.007910123 0.015576639 0.049850002
0.025950978 0.004551855 0.0013428278 0.0010321233 0.00065894733 0.053293526 0.00018002818 0.003424027
0.04669632 0.018508805 0.025760354 0.00011857247 0.012186758 0.0001045752 0.0010675328 0.0065549337
0.013180801 0.008604967 0.033044897 0.035895634 0.015046449 0.0072081797 0.051745903 0.015060411
0.0010157869 0.04012611 0.022541802 0.015318218 0.019017382 0.043813013 0.0019145743 0.024173908
00000000: 44d9 4e3d e84b 803b f9ad 9c3a b536 b93a
00000010: 3c58 af3b 77e0 263c 2bc5 ae3c e8ed 033d
00000020: 13f0 453c 78d6 003d 1989 9539 f4f9 4e3d
00000030: 9b38 8b3d 1b38 7b3c e933 033c be84 193c
00000040: 13f1 0f3d 0119 aa3c ec32 063d 464d 053a
00000050: 00e2 443c ebcf 163d d7d5 703c 957d b93d
00000060: aad0 b23a ddea c03c aa43 313b df9e aa3c
00000070: 1a35 983a 7699 013c 2935 7f3c 842f 4c3d
00000080: 2597 d43c ba27 953b d301 b03a 5048 873a
00000090: 35bd 2c3a 504a 5a3d f2c5 3c39 a465 603b
000000a0: a444 3f3d c79f 973c 6107 d33c 1caa f838
000000b0: f8aa 473c 624f db38 75ec 8b3a c5ca d63b
000000c0: 49f4 573c d9fb 0c3c 165a 073d 4d07 133d
000000d0: 6285 763c 9832 ec3b 83f3 533d f1bf 763c
000000e0: 2724 853a 475b 243d 96a9 b83c 43f9 7a3c
000000f0: 57ca 9b3c 4675 333d 74f2 fa3a 5c08 c63c

bn2.weight f4 [64]
0.591315 0.56019014 0.36742356 0.29062134 0.2411636 0.31175035 0.51043946 0.47186115
0.4879742 0.6722252 0.64768624 0.25641546 0.3614409 0.15339105 0.38044694 0.38739085
0.5727401 0.638322 0.45614573 0.5657347 0.25928098 0.40043435 0.22040941 0.31365836
0.4764251 0.18750642 0.17569253 0.5289229 0.37282276 0.5472538 0.18926518 0.33884004
0.4605088 0.33257055 0.6496331 0.49489418 0.23260109 0.21120338 0.32941365 0.5581004
0.8121205 0.75865245 0.34180096 0.30970123 0.30106997 0.23896389 0.48259518 0.24253419
0.57729155 0.37339464 0.28542134 0.46206567 0.26602423 0.40493485 0.4805619 0.26298207
0.18686824 0.2837262 0.6766056 0.60462207 0.41712013 0.49786383 0.34501 0.34298748
00000000: 6b60 173f 9f68 0f3f f11e bc3e 52cc 943e
00000010: 97f3 763e be9d 9f3e 29ac 023f c997 f13e
00000020: c1d7 f93e f316 2c3f c4ce 253f e348 833e
00000030: c80e b93e 8b12 1d3e f1c9 c23e 1858 c63e
00000040: 189f 123f 1269 233f ef8b e93e fdd3 103f
00000050: 7ac0 843e bb05 cd3e 01b3 613e d497 a03e
00000060: feed f33e af01 403e bee8 333e 7e67 073f
00000070: a0e2 be3e d318 0c3f bbce 413e 717c ad3e
00000080: cfc7 eb3e b046 aa3e 5b4e 263f c562 fd3e
00000090: fb2e 6e3e b345 583e e8a8 a83e abdf 0e3f
000000a0: 21e7 4f3f 0c37 423f 8900 af3e 2991 9e3e
000000b0: d825 9a3e f3b2 743e b716 f73e e25a 783e
000000c0: 61c9 133f 952d bf3e bf22 923e df93 ec3e
000000d0: 5434 883e 9f53 cf3e 360c f63e 96a5 863e
000000e0: 635a 3f3e 8f44 913e 0636 2d3f 83c8 1a3f
000000f0: c590 d53e 02e8 fe3e 27a5 b03e 0e9c af3e

bn2.bias f4 [64]
-0.3280579 -0.16803315 0.041459434 -0.15964432 0.08866753 -0.111912206 -0.08108551 -0.50341225
-0.0056907926 -1.3920305 -0.72605866 -0.01236129 0.09099459 0.085375726 -0.09955356 0.0178079
-0.18479522 -0.3050036 -0.05639696 -0.05634949 -0.06382224 -0.1690151 -0.05863667 -0.19174
-0.21544872 0.14311066 0.7273066 0.051728122 0.28878716 -0.20615153 0.14734782 0.12473995
-0.6301151 -0.08963739 -0.5865681 -0.9588164 -0.055528104 -0.04597627 0.15339889 -0.1425302
-0.43047348 -0.39425644 -0.18363374 -0.24927689 -0.10243582 -0.0669786 -0.39000684 0.060003504
-0.2571571 0.032742642 -0.27963647 -0.8028779 -0.0938614 -0.61691576 0.047742676 -0.052652776
0.058817428 -0.20626286 -0.2269857 -0.2838447 -0.101042844 -0.026319621 -0.16946755 -0.2819475
00000000: 34f7 a7be e210 2cbe 5ed1 293d cd79 23be
00000010: 5297 b53d 3a32 e5bd 2910 a6bd a0df 00bf
00000020: d479 babb 0e2e b2bf fbde 39bf 0287 4abc
00000030: 5f5b ba3d 78d9 ae3d bde2 cbbd e0e1 913c
00000040: f53a 3dbe 6f29 9cbe 8000 67bd b9ce 66bd
00000050: 3cb5 82bd 4b12 2dbe 012d 70bd 7e57 44be
00000060: 979e 5cbe 9a8b 123e c430 3a3f dee0 533d
00000070: e9db 933e 6319 53be 59e2 163e a977 ff3d
00000080: 394f 21bf cf93 b7bd 5429 16bf fe74 75bf
00000090: 7071 63bd 9d51 3cbd 9914 1d3e 70f3 11be
000000a0: 0567 dcbe fbdb c9be 7c0a 3cbe 7142 7fbe
000000b0: dfc9 d1bd 142c 89bd faae c7be 3cc6 753d
000000c0: 18aa 83be 261d 063d 832c 8fbe 6889 4dbf
000000d0: 683a c0bd 31ee 1dbf d38d 433d 70aa 57bd
000000e0: 8bea 703d 9236 53be f06e 68be 1854 91be
000000f0: 8def cebd 3f9c d7bc e788 2dbe 6c5b 90be

bn2.running_mean f4 [64]
0.085526265 -0.11957616 -0.37372872 -0.12040348 0.016629515 0.17156526 0.021091187 0.119853586
-0.17109354 0.32552242 0.1786516 -0.09430516 -0.15145499 -0.007330014 -0.24230099 -0.06614334
-0.23411351 -0.14151253 0.26594052 -0.023332328 -0.27665135 0.16418281 -0.15791212 -0.18181817
0.16553019 -0.44651458 -0.02193133 -0.0002892402 -0.2608422 -0.041723456 0.12222355 -0.12844071
0.19516489 -0.24285315 0.26627964 0.2661739 -0.085073374 -0.0024378735 0.087187976 0.19485849
-0.029052598 0.167758 0.08593158 0.023057388 -0.2527549 0.0970812 -0.23053709 -0.044384923
-0.024992364 -0.08764642 -0.21401046 0.08528243 -0.19342227 -0.065504685 0.0056011463 0.16600917
-0.10967901 0.018197687 -0.17407487 0.014388015 0.009082524 -0.28140578 -0.25112617 -0.1741112
00000000: 6528 af3d 59e4 f4bd 5f59 bfbe 1a96 f6bd
00000010: 9f3a 883c ceae 2f3e 6dc7 ac3c cc75 f53d
00000020: 2533 2fbe e0aa a63e 72f0 363e 1023 c1bd
00000030: 0417 1bbe 9d30 f0bb c01d 78be 2976 87bd
00000040: 74bb 6fbe a9e8 10be 5b29 883e 7023 bfbc
00000050: 3fa5 8dbe 8a1f 283e b7b3 21be 8b2e 3abe
00000060: bf80 293e 8f9d e4be 55a9 b3bc 2aa5 97b9
00000070: 1c8d 85be 37e6 2abd 5750 fa3d f685 03be
00000080: 4ed9 473e 7fae 78be ce55 883e f247 883e
00000090: f33a aebd bbc4 1fbb 9c8f b23d fc88 473e
000000a0: b7ff edbc c1c8 2b3e e5fc af3d d9e2 bc3c
000000b0: 1769 81be 82d2 c63d ea11 6cbe f7cc 35bd
000000c0: c9bc ccbc f77f b3bd 8f25 5bbe 8ea8 ae3d
000000d0: 7d10 46be 5227 86bd d289 b73b 4ffe 293e
000000e0: 649f e0bd 5113 953c af40 32be b5bb 6b3c
000000f0: dece 143c 6b14 90be 9c93 80be 354a 32be

bn2.running_var f4 [64]
0.13495862 0.36436945 0.32861587 0.05016654 0.053845856 0.011551076 0.21921298 0.060685173
0.16061279 0.060700458 0.08859193 0.0144633725 0.12926768 0.039148986 0.12999949 0.08284383
0.18260907 0.10442214 0.16849735 0.14555226 0.058464814 0.34894094 0.025422387 0.00945192
0.13185053 0.04730617 0.007853696 0.39779174 0.099116 0.11725383 0.051676072 0.09558181
0.081173286 0.075774856 0.07205759 0.052888397 0.052953985 0.047878724 0.07448493 0.15066542
0.06133525 0.09052401 0.043079905 0.05023177 0.012404463 0.05007366 0.082417734 0.113616474
0.07009047 0.16207913 0.017607262 0.03330315 0.032694828 0.017595118 0.26902968 0.097853266
0.020298118 0.0077955127 0.24612309 0.27368122 0.1748482 0.14797379 0.05953298 0.024491884
00000000: 9832 0a3e a28e ba3e 5740 a83e 6e7b 4d3d
00000010: 798d 5c3d b940 3d3c 5e79 603e 0491 783d
00000020: ae77 243e 0ba1 783d b06f b53d c8f7 6c3c
00000030: bf5e 043e b05a 203d 961e 053e 07aa a93d
00000040: dffd 3a3e 46db d53d 928a 2c3e a70b 153e
00000050: cd78 6f3d 63a8 b23e 9c42 d03c 3adc 1a3c
00000060: d303 073e 1dc4 413d caac 003c 5cab cb3e
00000070: 54fd ca3d c722 f03d 4aaa 533d 65c0 c33d
00000080: 2e3e a63d d92f 9b3d ee92 933d 81a1 583d
00000090: 47e6 583d 7b1c 443d 8e8b 983d 0948 1a3e
000000a0: ac3a 7b3d a764 b93d 8e74 303d d4bf 4d3d
000000b0: 173c 4b3c 0a1a 4d3d a1ca a83d c1af e83d
000000c0: 988b 8f3d 12f8 253e 1b3d 903c e268 083d
000000d0: 03eb 053d a323 903c 42be 893e 4b67 c83d
000000e0: 3d48 a63c 8071 ff3b b107 7c3e f21f 8c3e
000000f0: 680b 333e 7186 173e dbd8 733d 34a3 c83c

bn3.weight f4 [32]
0.60973096 0.75733507 0.8335251 0.2579542 0.7833498 0.5972761 0.7338389 0.6585496
0.87820965 0.57511044 0.13958748 0.17843631 0.4087811 0.77534246 0.47537524 0.77212983
0.80715925 0.8556076 0.2578971 0.69576347 0.2620429 0.7332767 0.8416729 0.20128967
0.87773883 0.3404671 0.18769684 0.54219 0.16757733 0.90816045 0.56358397 0.58242285
00000000: 5417 1c3f b6e0 413f e761 553f 9312 843e
00000010: 9d89 483f 16e7 183f dedc 3b3f b596 283f
00000020: 59d2 603f 703a 133f 05f0 0e3e 02b8 363e
00000030: c24b d13e d87c 463f 6264 f33e 4daa 453f
00000040: fda1 4e3f 1a09 5b3f 170b 843e 8e1d 323f
00000050: 7d2a 863e 06b8 3b3f e077 573f e11e 4e3e
00000060: 7eb3 603f b451 ae3e 9a33 403e f7cc 0a3f
00000070: 6499 2b3e 347d 683f 0a47 103f aa19 153f

bn3.bias f4 [32]
-0.15265584 0.05023208 0.22508213 0.0497976 0.1970464 -0.008070838 -0.17684631 -0.040995818
0.061276183 -0.07141158 0.21397237 0.16037086 -0.13370778 -0.1637075 0.014399496 0.07264716
0.055211555 -0.049405444 0.06850716 -0.13079415 0.07377506 -0.11241908 0.13734518 0.10236859
-0.14338303 0.028492915 0.21833634 -0.10598599 0.16114181 0.15895721 -0.021529317 -0.15346599
00000000: d051 1cbe 27c0 4d3d ee7b 663e 91f8 4b3d
00000010: 88c6 493e 8c3b 04bc 3317 35be 3beb 27bd
00000020: bcfc 7a3d 3c40 92bd 931b 5b3e 4238 243e
00000030: b1ea 08be f0a2 27be ddeb 6b3c 09c8 943d
00000040: 8325 623d 5d5d 4abd 7b4d 8c3d e7ee 05be
00000050: 6117 973d fa3b e6bd 37a4 0c3e a0a6 d13d
00000060: 00d3 12be f969 e93c 9093 5f3e 2f0f d9bd
00000070: 5c02 253e aec5 223e 405e b0bc 3026 1dbe

bn3.running_mean f4 [32]
-0.20910157 0.043723743 -0.0053804656 -0.1530115 0.021686312 -0.14491543 0.032896873 0.011819902
-0.092532724 0.010592024 -0.06653829 -0.22787969 -0.095664866 0.10134493 0.040909886 0.14761457
0.09173613 -0.14094238 -0.15091941 0.16979805 -0.11852376 0.046337433 -0.015683675 -0.11101115
-0.15011303 -0.17549247 0.0096137 -0.1430843 -0.17387825 -0.042732254 -0.122825116 0.069977984
00000000: b91e 56be ab17 333d 9e4e b0bb 0caf 1cbe
00000010: 7ea7 b13c b664 14be dfbe 063d 43a8 413c
00000020: cc81 bdbd 2b8a 2d3c 3a45 88bd 4b59 69be
00000030: f1eb c3bd ee8d cf3d 2091 273d 4628 173e
00000040: 27e0 bb3d 3353 10be 9e8a 1abe 8adf 2d3e
00000050: 96bc f2bd 52cc 3d3d 0d7b 80bc d059 e3bd
00000060: 3bb7 19be 4cb4 33be c882 1d3c b184 12be
00000070: 240d 32be 0408 2fbd bc8b fbbd 9e50 8f3d

bn3.running_var f4 [32]
0.21803044 0.27187562 0.11544656 0.040397465 0.2077786 0.29043344 0.4082605 0.21074326
0.07922058 0.14039983 0.019919645 0.026854182 0.22927211 0.3653889 0.09151877 0.36981952
0.31472215 0.27419493 0.056923743 0.25985888 0.057779282 0.40666798 0.118183605 0.057076514
0.24772523 0.18272537 0.015328813 0.07458748 0.021488745 0.17874135 0.17577691 0.20362744
00000000: 5f43 5f3e 4833 8b3e 3f6f ec3d d077 253d
00000010: eac3 543e b1b3 943e 8507 d13e 15cd 573e
00000020: 663e a23d f9c4 0f3e 862e a33c 4dfd db3c
00000030: 4fc6 6a3e 4114 bb3e 316e bb3d fc58 bd3e
00000040: 4323 a13e 4763 8c3e df28 693d 390c 853e
00000050: f8a9 6c3d c936 d03e 3f0a f23d 10c9 693d
00000060: afab 7d3e 5c1c 3b3e b425 7b3c 52c1 983d
00000070: 2a09 b03c f907 373e ddfe 333e b683 503e

onnx::Resize_97 f4 [4]
1.0 1.0 2.0 2.0
00000000: 0000 803f 0000 803f 0000 0040 0000 0040

x.3 f4 [64, 3, 5, 5]
-0.01897989 0.10574511 -0.0018076086 0.056939673 0.04790163 -0.002711413 0.03795978 0.06959293
0.114783145 0.06868913 0.11207174 0.114783145 0.080438584 0.048805434 0.09851467 0.008134238
0.09218804 0.114783145 -0.0 -0.0036152173 -0.059651084 0.046997823 0.07140054 0.08495761
0.036152173 -0.032536954 -0.029825542 -0.01897989 0.013557065 -0.042478804 -0.045190215 -0.009941848
-0.005422826 -0.034344565 -0.018076086 -0.05422826 0.07772717 -0.009941848 -0.09851467 -0.042478804
-0.07140054 -0.042478804 -0.0126532605 0.114783145 -0.02711413 0.114783145 -0.08134239 -0.0632663
-0.040671196 -0.038863584 -0.009038043 -0.06417011 -0.042478804 -0.07682337 -0.0126532605 -0.0063266302
-0.07411195 0.114783145 -0.10664891 -0.09851467 -0.057843477 0.009038043 -0.028017934 -0.114783145
-0.08224619 -0.050613042 -0.0632663 -0.057843477 -0.10574511 -0.056939673 -0.042478804 -0.06417011
0.114783145 -0.09128424 -0.045190215 -0.011053437 0.041199178 0.039189458 -0.06330605 0.020097159
0.12158781 0.09345179 -0.04923804 -0.053257473 -0.016077727 -0.06431091 -0.081393495 -0.08541293
0.046223465 -0.001004858 0.023111733 0.12761696 0.12761696 0.082398355 -0.056272045 -0.015072869
0.059286617 -0.04722832 -0.011053437 -0.0381846 0.035170026 -0.027131164 0.004019432 0.0190923
0.0 -0.12761696 0.022106875 -0.026126307 -0.023111733 0.010048579 -0.04320889 -0.12259267
-0.12761696 0.014068011 -0.012058295 0.015072869 0.09445664 0.08943236 0.046223465 -0.039189458
0.023111733 -0.02914088 -0.07737406 -0.06431091 0.053257473 -0.028136022 -0.018087443 0.035170026
0.036174886 -0.008038864 -0.02411659 -0.04320889 0.031150596 -0.06833034 -0.033160314 -0.08641778
-0.12560724 -0.11656352 0.040194318 0.12761696 -0.0070340056 0.11957809 0.105510086 0.06833034
0.0070340056 -0.017082585 0.031150596 0.05426233 0.035170026 -0.002009716 0.02064346 -0.13798523
-0.049978904 -0.08366034 0.0065189875 -0.071708865 0.11299578 0.023902955 0.022816457 -0.1064768
0.0510654 0.021729957 0.048892405 -0.065189876 0.0043459916 0.02064346 0.13798523 0.13472573
0.017383967 -0.049978904 -0.009778481 -0.0021729958 -0.029335443 0.027162448 0.015210971 0.0532384
0.048892405 0.013037975 0.0076054856 0.028248945 -0.038027428 0.065189876 -0.032594938 0.090179324
-0.021729957 -0.022816457 -0.11516878 -0.13798523 -0.08040085 0.0076054856 -0.013037975 0.060843885
0.08366034 -0.058670886 0.04128692 0.03694093 -0.0 -0.06193038 -0.04237342 0.017383967
0.032594938 0.0043459916 -0.022816457 0.065189876 -0.0076054856 -0.02607595 0.06627637 0.048892405
0.109736286 0.060843885 -0.049978904 -0.13472573 -0.07388186 -0.009778481 0.06410338 -0.094525315
-0.022816457 0.103217304 0.0021729958 0.030421942 -0.024989452 -0.0532384 -0.058670886 0.04780591
-0.04237342 0.057084262 -0.13425373 0.05497003 -0.032770596 -0.008456928 -0.04439887 0.058141377
0.04439887 -0.03382771 0.020085203 0.022199435 -0.01585674 -0.10254025 0.13425373 -0.0052855797
0.004228464 0.014799624 -0.11628275 0.114168525 -0.036999058 0.011628276 0.001057116 0.013742507
0.003171348 0.006342696 -0.047570217 0.032770596 0.013742507 0.01585674 0.051798683 0.13425373
00000000: b77b 9bbc e490 d83d 48ed ecba 9339 693d
00000010: 8034 443d f6b1 31bb b77b 1b3d bd86 8e3d
00000020: 6d13 eb3d e3ac 8c3d de85 e53d 6d13 eb3d
00000030: fcbc a43d 35e8 473d 0fc2 c93d 7845 053c
00000040: 15cd bc3d 6d13 eb3d 0000 0080 48ed 6cbb
00000050: b254 74bd ca80 403d 723a 923d 41fe ad3d
00000060: 4d14 143d 7845 05bd b254 f4bc b77b 9bbc
00000070: 741e 5e3c 41fe 2dbd 6019 39bd 22e3 22bc
00000080: f6b1 b1bb e3ac 0cbd 4d14 94bc 741e 5ebd
00000090: 6c2f 9f3d 22e3 22bc 0fc2 c9bd 41fe 2dbd
000000a0: 723a 92bd 41fe 2dbd 9f4f 4fbc 6d13 eb3d
000000b0: 741e debc 6d13 eb3d d796 a6bd c391 81bd
000000c0: d796 26bd 6c2f 1fbd 4d14 14bc 9e6b 83bd
000000d0: 41fe 2dbd 9255 9dbd 9f4f 4fbc 9f4f cfbb
000000e0: 02c8 97bd 6d13 eb3d be6a dabd 0fc2 c9bd
000000f0: 48ed 6cbd 4d14 143c de85 e5bc 6d13 ebbd
00000100: b170 a8bd 9f4f 4fbd c391 81bd 48ed 6cbd
00000110: e490 d8bd 9339 69bd 41fe 2dbd 9e6b 83bd
00000120: 6d13 eb3d 3bf3 babd 6019 39bd 7a19 35bc
00000130: 78c0 283d 2085 203d 9aa6 81bd cca2 a43c
00000140: 0803 f93d a763 bf3d d4ad 49bd 8224 5abd
00000150: 70b5 83bc 70b5 83bd a2b1 a6bd f9ec aebd
00000160: d154 3d3d 70b5 83ba d154 bd3c 05ae 023e
00000170: 05ae 023e 78c0 a83d 847d 66bd 32f4 76bc
00000180: 86d6 723d 7c72 41bd 7a19 35bc 7567 1cbd
00000190: 720e 103d 2d42 debc 70b5 833b 7567 9c3c
000001a0: 0000 0000 05ae 02be 7a19 b53c d606 d6bc
000001b0: d154 bdbc cca2 243c cefb 30bd de11 fbbd
000001c0: 05ae 02be 847d 663c 2890 45bc 32f4 763c
000001d0: 7c72 c13d 5028 b73d d154 3d3d 2085 20bd
000001e0: d154 bd3c dbb8 eebc 4b76 9ebd 70b5 83bd
000001f0: 8224 5a3d 847d e6bc 1e2c 94bc 720e 103d
00000200: 1e2c 143d 70b5 03bc 2890 c5bc cefb 30bd
00000210: 892f ff3c c7f0 8bbd 1cd3 07bd cefb b0bd
00000220: 2f9f 00be dbb8 eebd cca2 243d 05ae 023e
00000230: 847d e6bb 5ce5 f43d ac15 d83d c7f0 8b3d
00000240: 847d e63b c7f0 8bbc 892f ff3c 2d42 5e3d
00000250: 720e 103d 70b5 03bb 791c a93c 004c 0dbe
00000260: aeb6 4cbd 1d56 abbd 3b9d d53b 19dc 92bd
00000270: 556a e73d 21d0 c33c 94e9 ba3c 8210 dabd
00000280: f429 513d 0603 b23c 6743 483d 4582 85bd
00000290: d268 8e3b 791c a93c 004c 0d3e 8bf5 093e
000002a0: d268 8e3c aeb6 4cbd ec35 20bc d268 0ebb
000002b0: e250 f0bc c883 de3c 7037 793c 8210 5a3d
000002c0: 6743 483d 3b9d 553c 7037 f93b 556a e73c
000002d0: a6c2 1bbd 4582 853d 4582 05bd f0af b83d
000002e0: 0603 b2bc 94e9 babc 9cdd ebbd 004c 0dbe
000002f0: 33a9 a4bd 7037 f93b 3b9d 55bc 7037 793d
00000300: 1d56 ab3d e250 70bd 791c 293d 5f4f 173d
00000310: 0000 0080 b6aa 7dbd c08f 2dbd d268 8e3c
00000320: 4582 053d d268 8e3b 94e9 babc 4582 853d
00000330: 7037 f9bb 3b9d d5bc e8bb 873d 6743 483d
00000340: 6bbd e03d 7037 793d aeb6 4cbd 8bf5 09be
00000350: 5f4f 97bd ec35 20bc a248 833d 7d96 c1bd
00000360: 94e9 babc 9863 d33d d268 0e3b 7037 f93c
00000370: aeb6 ccbc 8210 5abd e250 70bd 21d0 433d
00000380: c08f 2dbd 30d1 693d cf79 09be 4128 613d
00000390: 763a 06bd ed8e 0abc 97db 35bd a725 6e3d
000003a0: 97db 353d ed8e 0abd b989 a43c 97db b53c
000003b0: fee5 81bc 9f00 d2bd cf79 093e a832 adbb
000003c0: ed8e 8a3b 1f7a 723c a725 eebd 30d1 e93d
000003d0: 538c 17bd 8684 3e3c ed8e 8a3a 4128 613c
000003e0: 64d6 4f3b 64d6 cf3b fdd8 42bd 763a 063d
000003f0: 4128 613c fee5 813c db2a 543d cf79 093e

scale.3 f4 [64, 1, 1, 1]
0.0009038043 0.001004858 0.0010864979 0.001057116 0.00092632324 0.0009183764 0.0009089432 0.0008584888
0.0008858659 0.00085171935 0.0010435355 0.00089823303 0.00080748566 0.00087485614 0.0009780374 0.001013395
0.0008454854 0.000944417 0.0009730622 0.00096655847 0.0008798438 0.0009240353 0.0009122665 0.00083571195
0.00097249117 0.000985861 0.0010863522 0.00084394484 0.0010473732 0.000974211 0.0009220755 0.00080705393
0.0009003773 0.0010704088 0.0010647378 0.0010419303 0.0010562156 0.0008104166 0.001027972 0.00094430527
0.0008755614 0.00090041594 0.00085767824 0.0010426254 0.00092870643 0.0010085013 0.0010562093 0.0009695129
0.000916294 0.0008981232 0.0008020016 0.00091383274 0.0008871862 0.0009815802 0.00085692905 0.000949193
0.0010028493 0.00086836045 0.00089177245 0.00089935114 0.000891911 0.00086199393 0.0009594029 0.00091622013
00000000: 48ed 6c3a 70b5 833a d268 8e3a ed8e 8a3a
00000010: 80d4 723a 32bf 703a 2546 6e3a 350c 613a
00000020: 7439 683a eb45 5f3a 3ec7 883a 6677 6b3a
00000030: 72ad 533a 9a56 653a 7d31 803a e5d3 843a
00000040: 91a3 5d3a c192 773a 1915 7f3a a460 7d3a
00000050: 51a5 663a f63a 723a 2b25 6f3a ae13 5b3a
00000060: c7ee 7e3a 0238 813a ee63 8e3a 2e3c 5d3a
00000070: 0348 893a 3262 7f3a 70b7 713a 7990 533a
00000080: 4c07 6c3a f64c 8c3a ac8e 8b3a 6191 883a
00000090: b770 8a3a 2372 543a 04bd 863a 418b 773a
000000a0: ee85 653a e409 6c3a d0d5 603a b4a8 883a
000000b0: 6f74 733a b02f 843a 8170 8a3a e926 7e3a
000000c0: 7333 703a 0770 6b3a 6b3d 523a 478e 6f3a
000000d0: 0f92 683a 5ea8 803a 89a3 603a 44d3 783a
000000e0: 0a72 833a afa2 633a d6c5 693a 6fc2 6b3a
000000f0: 22cf 693a 6ff7 613a 7080 7b3a 7e2e 703a

x.11 f4 [64, 64, 3, 3]
0.0 0.0 0.018594995 0.0061983317 -0.0 -0.018594995 -0.0 -0.012396663
0.0 0.030991659 0.030991659 0.012396663 0.012396663 -0.0 -0.0061983317 0.018594995
0.0061983317 0.0 -0.0 0.012396663 -0.0061983317 -0.0061983317 -0.018594995 -0.03718999
0.0 0.018594995 0.0061983317 0.018594995 -0.0 -0.018594995 -0.0061983317 -0.012396663
0.012396663 -0.0061983317 -0.030991659 0.0 -0.012396663 -0.018594995 -0.024793327 -0.018594995
0.0 0.0061983317 -0.03718999 -0.03718999 -0.012396663 0.018594995 0.030991659 0.030991659
0.018594995 0.024793327 0.03718999 0.0 0.0061983317 0.018594995 -0.024793327 -0.024793327
-0.024793327 -0.024793327 -0.024793327 -0.024793327 -0.030991659 -0.024793327 -0.024793327 -0.0
0.030991659 -0.0 -0.0061983317 0.024793327 0.018594995 0.024793327 0.024793327 0.018594995
0.012396663 0.0061983317 0.0 0.018594995 0.024793327 0.03718999 -0.0 0.012396663
0.024793327 0.012396663 0.012396663 0.012396663 0.0061983317 0.018594995 0.0061983317 -0.012396663
0.0061983317 -0.0061983317 -0.012396663 0.0 -0.0 -0.0061983317 0.024793327 0.018594995
-0.012396663 0.024793327 -0.0 0.0061983317 0.012396663 0.012396663 -0.0 -0.0
0.018594995 0.012396663 0.018594995 0.012396663 -0.012396663 -0.03718999 -0.030991659 -0.043388322
-0.043388322 -0.043388322 -0.043388322 -0.043388322 -0.043388322 0.012396663 0.018594995 0.018594995
0.018594995 0.043388322 0.043388322 0.012396663 0.030991659 0.024793327 -0.043388322 -0.030991659
-0.018594995 -0.024793327 -0.024793327 -0.0061983317 -0.043388322 -0.043388322 -0.043388322 -0.0061983317
0.0061983317 0.0 -0.0 0.0 -0.0 -0.0 -0.030991659 -0.018594995
0.024793327 0.030991659 0.030991659 0.030991659 0.03718999 0.03718999 0.024793327 0.03718999
0.030991659 -0.0061983317 -0.024793327 -0.018594995 -0.012396663 -0.030991659 -0.018594995 -0.018594995
-0.03718999 -0.030991659 0.0061983317 0.0061983317 0.0 0.0061983317 0.0061983317 0.0061983317
0.012396663 0.018594995 0.012396663 0.0061983317 0.018594995 -0.012396663 0.018594995 0.012396663
0.0 0.012396663 -0.018594995 -0.024793327 -0.0061983317 0.012396663 0.012396663 0.018594995
0.030991659 0.018594995 0.012396663 0.012396663 -0.012396663 -0.0 -0.0061983317 -0.0
0.0 0.0061983317 -0.0061983317 0.0 0.012396663 0.0 -0.018594995 -0.018594995
-0.018594995 0.0 0.0 0.0 -0.018594995 -0.024793327 -0.018594995 0.0061983317
0.0061983317 0.0061983317 0.0061983317 0.0061983317 0.0061983317 0.0061983317 0.0061983317 0.0061983317
-0.024793327 0.012396663 -0.0061983317 0.0 0.018594995 -0.0061983317 -0.0061983317 -0.03718999
-0.018594995 -0.0061983317 0.0061983317 -0.0 -0.012396663 -0.0 0.012396663 -0.0061983317
0.0 -0.0 0.024793327 -0.012396663 -0.0061983317 0.012396663 -0.024793327 -0.030991659
-0.0 -0.043388322 -0.03718999 -0.012396663 0.012396663 -0.012396663 -0.03718999 -0.024793327
-0.03718999 0.012396663 0.0 -0.0 0.0 0.018594995 0.018594995 0.0
00000000: 0000 0000 0000 0000 8854 983c 601b cb3b
00000010: 0000 0080 8854 98bc 0000 0080 601b 4bbc
00000020: 0000 0000 38e2 fd3c 38e2 fd3c 601b 4b3c
00000030: 601b 4b3c 0000 0080 601b cbbb 8854 983c
00000040: 601b cb3b 0000 0000 0000 0080 601b 4b3c
00000050: 601b cbbb 601b cbbb 8854 98bc 8854 18bd
00000060: 0000 0000 8854 983c 601b cb3b 8854 983c
00000070: 0000 0080 8854 98bc 601b cbbb 601b 4bbc
00000080: 601b 4b3c 601b cbbb 38e2 fdbc 0000 0000
00000090: 601b 4bbc 8854 98bc 601b cbbc 8854 98bc
000000a0: 0000 0000 601b cb3b 8854 18bd 8854 18bd
000000b0: 601b 4bbc 8854 983c 38e2 fd3c 38e2 fd3c
000000c0: 8854 983c 601b cb3c 8854 183d 0000 0000
000000d0: 601b cb3b 8854 983c 601b cbbc 601b cbbc
000000e0: 601b cbbc 601b cbbc 601b cbbc 601b cbbc
000000f0: 38e2 fdbc 601b cbbc 601b cbbc 0000 0080
00000100: 38e2 fd3c 0000 0080 601b cbbb 601b cb3c
00000110: 8854 983c 601b cb3c 601b cb3c 8854 983c
00000120: 601b 4b3c 601b cb3b 0000 0000 8854 983c
00000130: 601b cb3c 8854 183d 0000 0080 601b 4b3c
00000140: 601b cb3c 601b 4b3c 601b 4b3c 601b 4b3c
00000150: 601b cb3b 8854 983c 601b cb3b 601b 4bbc
00000160: 601b cb3b 601b cbbb 601b 4bbc 0000 0000
00000170: 0000 0080 601b cbbb 601b cb3c 8854 983c
00000180: 601b 4bbc 601b cb3c 0000 0080 601b cb3b
00000190: 601b 4b3c 601b 4b3c 0000 0080 0000 0080
000001a0: 8854 983c 601b 4b3c 8854 983c 601b 4b3c
000001b0: 601b 4bbc 8854 18bd 38e2 fdbc f4b7 31bd
000001c0: f4b7 31bd f4b7 31bd f4b7 31bd f4b7 31bd
000001d0: f4b7 31bd 601b 4b3c 8854 983c 8854 983c
000001e0: 8854 983c f4b7 313d f4b7 313d 601b 4b3c
000001f0: 38e2 fd3c 601b cb3c f4b7 31bd 38e2 fdbc
00000200: 8854 98bc 601b cbbc 601b cbbc 601b cbbb
00000210: f4b7 31bd f4b7 31bd f4b7 31bd 601b cbbb
00000220: 601b cb3b 0000 0000 0000 0080 0000 0000
00000230: 0000 0080 0000 0080 38e2 fdbc 8854 98bc
00000240: 601b cb3c 38e2 fd3c 38e2 fd3c 38e2 fd3c
00000250: 8854 183d 8854 183d 601b cb3c 8854 183d
00000260: 38e2 fd3c 601b cbbb 601b cbbc 8854 98bc
00000270: 601b 4bbc 38e2 fdbc 8854 98bc 8854 98bc
00000280: 8854 18bd 38e2 fdbc 601b cb3b 601b cb3b
00000290: 0000 0000 601b cb3b 601b cb3b 601b cb3b
000002a0: 601b 4b3c 8854 983c 601b 4b3c 601b cb3b
000002b0: 8854 983c 601b 4bbc 8854 983c 601b 4b3c
000002c0: 0000 0000 601b 4b3c 8854 98bc 601b cbbc
000002d0: 601b cbbb 601b 4b3c 601b 4b3c 8854 983c
000002e0: 38e2 fd3c 8854 983c 601b 4b3c 601b 4b3c
000002f0: 601b 4bbc 0000 0080 601b cbbb 0000 0080
00000300: 0000 0000 601b cb3b 601b cbbb 0000 0000
00000310: 601b 4b3c 0000 0000 8854 98bc 8854 98bc
00000320: 8854 98bc 0000 0000 0000 0000 0000 0000
00000330: 8854 98bc 601b cbbc 8854 98bc 601b cb3b
00000340: 601b cb3b 601b cb3b 601b cb3b 601b cb3b
00000350: 601b cb3b 601b cb3b 601b cb3b 601b cb3b
00000360: 601b cbbc 601b 4b3c 601b cbbb 0000 0000
00000370: 8854 983c 601b cbbb 601b cbbb 8854 18bd
00000380: 8854 98bc 601b cbbb 601b cb3b 0000 0080
00000390: 601b 4bbc 0000 0080 601b 4b3c 601b cbbb
000003a0: 0000 0000 0000 0080 601b cb3c 601b 4bbc
000003b0: 601b cbbb 601b 4b3c 601b cbbc 38e2 fdbc
000003c0: 0000 0080 f4b7 31bd 8854 18bd 601b 4bbc
000003d0: 601b 4b3c 601b 4bbc 8854 18bd 601b cbbc
000003e0: 8854 18bd 601b 4b3c 0000 0000 0000 0080
000003f0: 0000 0000 8854 983c 8854 983c 0000 0000

scale.11 f4 [64, 1, 1, 1]
0.0061983317 0.0063452553 0.0066500744 0.0069316635 0.006646763 0.0066524465 0.0068789306 0.0069265566
0.004953925 0.004878028 0.0049371608 0.006721392 0.0058708293 0.0063919006 0.0056375293 0.0063849515
0.0062842467 0.0066537573 0.00651495 0.00610896 0.0065455777 0.0059845815 0.0064261616 0.0069705574
0.006213494 0.0071243206 0.008497234 0.0066544632 0.004818125 0.006349938 0.0066520507 0.006992393
0.0050928267 0.007151026 0.006003035 0.004500098 0.0069576306 0.0061255475 0.006070454 0.0065086614
0.006589684 0.005403156 0.006191835 0.0065334495 0.0065711755 0.006248474 0.0064450246 0.006601971
0.0054290593 0.006784388 0.0061580534 0.0060309093 0.006786718 0.006081616 0.006768139 0.0065281205
0.0069553843 0.0064990157 0.0065363115 0.005999356 0.0063378294 0.0066520334 0.0060714013 0.007111304
00000000: 601b cb3b dceb cf3b dee8 d93b 0223 e33b
00000010: 17cd d93b c4fc d93b a768 e13b 2bf8 e23b
00000020: 8954 a23b ddd7 9f3b e8c7 a13b 1f3f dc3b
00000030: 1660 c03b 2673 d13b 06bb b83b db38 d13b
00000040: 15ec cd3b c307 da3b 5d7b d53b ac2d c83b
00000050: 497c d63b 4f1a c43b 8d92 d23b 4669 e43b
00000060: 919a cb3b 2273 e93b fc37 0b3c af0d da3b
00000070: 5de1 9d3b 2413 d03b 72f9 d93b 7220 e53b
00000080: bae1 a63b 2753 ea3b 1cb5 c43b 8f75 933b
00000090: d6fc e33b d1b8 c83b a9ea c63b 9c46 d53b
000000a0: 47ee d73b f50c b13b e0e4 ca3b 8c16 d63b
000000b0: 0453 d73b 00c0 cc3b c930 d33b 5955 d83b
000000c0: 40e6 b13b 924f de3b 7fc9 c93b ef9e c53b
000000d0: 1e63 de3b 4b48 c73b 44c7 dd3b d8e9 d53b
000000e0: fee9 e33b b2f5 d43b 8e2e d63b 3f96 c43b
000000f0: 91ad cf3b 4df9 d93b 9bf2 c63b f105 e93b

x.19 f4 [32, 64, 3, 3]
0.012480296 0.03120074 0.006240148 0.0 0.018720444 0.0 0.0 0.012480296
0.0 -0.018720444 -0.0 -0.018720444 -0.012480296 0.006240148 -0.006240148 -0.024960592
-0.006240148 -0.024960592 0.006240148 -0.006240148 -0.018720444 0.0 0.006240148 -0.018720444
0.0 0.0 -0.018720444 0.012480296 0.0 0.006240148 0.006240148 -0.0
0.012480296 0.0 0.0 0.006240148 -0.012480296 -0.024960592 -0.024960592 -0.012480296
0.0 -0.043681037 -0.006240148 -0.03120074 -0.03744089 -0.0 0.0 -0.0
0.0 -0.018720444 -0.012480296 -0.006240148 -0.012480296 0.006240148 0.0 0.012480296
-0.024960592 -0.0 0.024960592 -0.024960592 -0.0 0.018720444 -0.024960592 0.03744089
0.03744089 0.043681037 0.043681037 0.043681037 0.03744089 0.03744089 0.043681037 0.03744089
-0.03744089 -0.03744089 -0.03120074 -0.006240148 -0.012480296 0.006240148 -0.012480296 -0.0
-0.006240148 0.012480296 0.012480296 0.006240148 0.03120074 0.024960592 0.006240148 0.03744089
0.012480296 0.0 -0.043681037 -0.03744089 -0.043681037 -0.03744089 -0.018720444 -0.043681037
-0.043681037 -0.043681037 -0.043681037 0.0 -0.006240148 -0.0 0.018720444 0.024960592
-0.0 0.0 -0.006240148 -0.024960592 0.006240148 -0.006240148 -0.012480296 -0.006240148
0.006240148 -0.006240148 0.0 -0.0 -0.006240148 0.012480296 -0.0 -0.018720444
0.006240148 0.0 -0.018720444 -0.006240148 -0.0 -0.012480296 -0.012480296 -0.0
-0.012480296 -0.006240148 0.0 -0.006240148 0.006240148 0.0 -0.0 -0.0
-0.018720444 -0.006240148 -0.0 -0.0 -0.012480296 0.018720444 0.006240148 0.0
-0.024960592 -0.018720444 -0.018720444 -0.024960592 -0.006240148 -0.012480296 -0.03120074 -0.018720444
-0.024960592 -0.012480296 -0.018720444 -0.012480296 -0.018720444 -0.03120074 -0.018720444 -0.012480296
-0.018720444 -0.012480296 -0.012480296 -0.006240148 -0.006240148 -0.012480296 -0.012480296 -0.012480296
-0.006240148 -0.0 0.006240148 -0.006240148 0.012480296 0.006240148 0.006240148 0.018720444
0.03120074 -0.0 0.0 -0.0 0.043681037 0.018720444 0.018720444 0.024960592
0.018720444 0.018720444 0.03744089 0.03744089 0.03744089 -0.018720444 0.006240148 0.0
-0.012480296 0.0 0.012480296 -0.012480296 -0.006240148 0.0 -0.03744089 -0.03120074
-0.03744089 -0.012480296 -0.018720444 -0.018720444 -0.043681037 -0.043681037 -0.03120074 0.0
-0.006240148 -0.0 0.03120074 0.043681037 0.018720444 -0.024960592 0.012480296 0.006240148
0.03120074 0.03120074 0.006240148 0.018720444 0.024960592 0.0 0.018720444 0.018720444
0.0 -0.024960592 -0.012480296 -0.03744089 0.0 -0.0 -0.006240148 -0.012480296
-0.0 -0.018720444 -0.018720444 0.012480296 0.0 -0.018720444 0.006240148 0.012480296
-0.03744089 -0.012480296 -0.03120074 -0.03120074 -0.043681037 -0.043681037 -0.018720444 -0.043681037
-0.043681037 -0.043681037 -0.043681037 -0.043681037 -0.018720444 -0.024960592 -0.03120074 -0.0
00000000: 287a 4c3c b298 ff3c 287a cc3b 0000 0000
00000010: 9e5b 993c 0000 0000 0000 0000 287a 4c3c
00000020: 0000 0000 9e5b 99bc 0000 0080 9e5b 99bc
00000030: 287a 4cbc 287a cc3b 287a ccbb 287a ccbc
00000040: 287a ccbb 287a ccbc 287a cc3b 287a ccbb
00000050: 9e5b 99bc 0000 0000 287a cc3b 9e5b 99bc
00000060: 0000 0000 0000 0000 9e5b 99bc 287a 4c3c
00000070: 0000 0000 287a cc3b 287a cc3b 0000 0080
00000080: 287a 4c3c 0000 0000 0000 0000 287a cc3b
00000090: 287a 4cbc 287a ccbc 287a ccbc 287a 4cbc
000000a0: 0000 0000 e3ea 32bd 287a ccbb b298 ffbc
000000b0: 9e5b 19bd 0000 0080 0000 0000 0000 0080
000000c0: 0000 0000 9e5b 99bc 287a 4cbc 287a ccbb
000000d0: 287a 4cbc 287a cc3b 0000 0000 287a 4c3c
000000e0: 287a ccbc 0000 0080 287a cc3c 287a ccbc
000000f0: 0000 0080 9e5b 993c 287a ccbc 9e5b 193d
00000100: 9e5b 193d e3ea 323d e3ea 323d e3ea 323d
00000110: 9e5b 193d 9e5b 193d e3ea 323d 9e5b 193d
00000120: 9e5b 19bd 9e5b 19bd b298 ffbc 287a ccbb
00000130: 287a 4cbc 287a cc3b 287a 4cbc 0000 0080
00000140: 287a ccbb 287a 4c3c 287a 4c3c 287a cc3b
00000150: b298 ff3c 287a cc3c 287a cc3b 9e5b 193d
00000160: 287a 4c3c 0000 0000 e3ea 32bd 9e5b 19bd
00000170: e3ea 32bd 9e5b 19bd 9e5b 99bc e3ea 32bd
00000180: e3ea 32bd e3ea 32bd e3ea 32bd 0000 0000
00000190: 287a ccbb 0000 0080 9e5b 993c 287a cc3c
000001a0: 0000 0080 0000 0000 287a ccbb 287a ccbc
000001b0: 287a cc3b 287a ccbb 287a 4cbc 287a ccbb
000001c0: 287a cc3b 287a ccbb 0000 0000 0000 0080
000001d0: 287a ccbb 287a 4c3c 0000 0080 9e5b 99bc
000001e0: 287a cc3b 0000 0000 9e5b 99bc 287a ccbb
000001f0: 0000 0080 287a 4cbc 287a 4cbc 0000 0080
00000200: 287a 4cbc 287a ccbb 0000 0000 287a ccbb
00000210: 287a cc3b 0000 0000 0000 0080 0000 0080
00000220: 9e5b 99bc 287a ccbb 0000 0080 0000 0080
00000230: 287a 4cbc 9e5b 993c 287a cc3b 0000 0000
00000240: 287a ccbc 9e5b 99bc 9e5b 99bc 287a ccbc
00000250: 287a ccbb 287a 4cbc b298 ffbc 9e5b 99bc
00000260: 287a ccbc 287a 4cbc 9e5b 99bc 287a 4cbc
00000270: 9e5b 99bc b298 ffbc 9e5b 99bc 287a 4cbc
00000280: 9e5b 99bc 287a 4cbc 287a 4cbc 287a ccbb
00000290: 287a ccbb 287a 4cbc 287a 4cbc 287a 4cbc
000002a0: 287a ccbb 0000 0080 287a cc3b 287a ccbb
000002b0: 287a 4c3c 287a cc3b 287a cc3b 9e5b 993c
000002c0: b298 ff3c 0000 0080 0000 0000 0000 0080
000002d0: e3ea 323d 9e5b 993c 9e5b 993c 287a cc3c
000002e0: 9e5b 993c 9e5b 993c 9e5b 193d 9e5b 193d
000002f0: 9e5b 193d 9e5b 99bc 287a cc3b 0000 0000
00000300: 287a 4cbc 0000 0000 287a 4c3c 287a 4cbc
00000310: 287a ccbb 0000 0000 9e5b 19bd b298 ffbc
00000320: 9e5b 19bd 287a 4cbc 9e5b 99bc 9e5b 99bc
00000330: e3ea 32bd e3ea 32bd b298 ffbc 0000 0000
00000340: 287a ccbb 0000 0080 b298 ff3c e3ea 323d
00000350: 9e5b 993c 287a ccbc 287a 4c3c 287a cc3b
00000360: b298 ff3c b298 ff3c 287a cc3b 9e5b 993c
00000370: 287a cc3c 0000 0000 9e5b 993c 9e5b 993c
00000380: 0000 0000 287a ccbc 287a 4cbc 9e5b 19bd
00000390: 0000 0000 0000 0080 287a ccbb 287a 4cbc
000003a0: 0000 0080 9e5b 99bc 9e5b 99bc 287a 4c3c
000003b0: 0000 0000 9e5b 99bc 287a cc3b 287a 4c3c
000003c0: 9e5b 19bd 287a 4cbc b298 ffbc b298 ffbc
000003d0: e3ea 32bd e3ea 32bd 9e5b 99bc e3ea 32bd
000003e0: e3ea 32bd e3ea 32bd e3ea 32bd e3ea 32bd
000003f0: 9e5b 99bc 287a ccbc b298 ffbc 0000 0080

scale.19 f4 [32, 1, 1, 1]
0.006240148 0.006405874 0.006640514 0.0062243263 0.005309952 0.0063338126 0.0055841743 0.0056283823
0.007466647 0.0063032764 0.00621016 0.0060655386 0.006089044 0.0067713656 0.006409398 0.0059597734
0.0056263106 0.005483362 0.0065918276 0.0062126606 0.006267934 0.0067617623 0.0068871933 0.006256339
0.00679835 0.0062043457 0.006529933 0.0065940917 0.006014083 0.006144919 0.0056998506 0.006386735
00000000: 287a cc3b 5ee8 d13b ab98 d93b 6ff5 cb3b
00000010: 1bff ad3b df8b cf3b 73fb b63b 4b6e b83b
00000020: c6aa f43b b78b ce3b 997e cb3b 6dc1 c63b
00000030: 9a86 c73b 55e2 dd3b ed05 d23b 344a c33b
00000040: ea5c b83b c6ad b33b 4200 d83b 9393 cb3b
00000050: 3e63 cd3b c691 dd3b f7ad e13b fa01 cd3b
00000060: b1c4 de3b d34d cb3b 0cf9 d53b 4013 d83b
00000070: c911 c53b 515b c93b d0c5 ba3b d147 d13b

x.27 f4 [3, 32, 3, 3]
0.04262511 0.023487305 -0.055238664 -0.016093154 0.025662057 -0.055238664 -0.010003853 -0.004349501
0.0021747504 -0.055238664 0.031316407 -0.055238664 0.022182455 0.0026097007 0.027401857 -0.055238664
0.016528104 -0.0143533535 0.03827561 0.033491157 0.04219016 0.029576607 0.022617405 0.026097007
0.006524252 0.04088531 0.026966907 -0.055238664 -0.020442655 -0.013483454 0.012613554 -0.0047844513
0.049149364 0.04610471 -0.055238664 0.03566591 -0.008264052 0.021312555 0.022617405 0.03914551
0.053933814 -0.0073941518 0.0147883035 0.011308703 0.022182455 -0.025662057 -0.0143533535 0.025227107
0.015658204 0.023487305 0.027836807 0.03653581 -0.020442655 -0.026531957 -0.003044651 0.025227107
0.023922255 0.011308703 -0.055238664 0.028271757 -0.003044651 -0.055238664 0.03697076 0.0026097007
0.010438803 0.0026097007 0.0047844513 -0.0152232535 0.03653581 -0.019572755 0.03914551 -0.009133953
0.006089302 0.006089302 -0.0047844513 0.011308703 0.013918404 -0.009133953 -0.011308703 0.019572755
0.019137805 -0.04306006 0.053498864 -0.0052194013 -0.055238664 -0.016093154 0.03610086 -0.03523096
-0.055238664 0.011308703 -0.055238664 0.048714414 -0.053063914 -0.03697076 0.053498864 0.03566591
0.025227107 0.025662057 -0.03697076 0.026966907 0.023487305 0.031316407 0.018267905 -0.054803714
-0.055238664 -0.011743653 0.029141657 0.004349501 0.04001541 0.03653581 0.027401857 -0.016093154
0.024792157 -0.04088531 -0.016528104 -0.023052355 -0.030011557 0.024357207 0.028271757 -0.020877605
-0.019137805 0.012178604 0.016963053 -0.04827946 -0.029576607 -0.052628964 -0.026966907 0.0143533535
-0.023052355 0.04610471 -0.055238664 0.019137805 -0.023052355 0.030881457 -0.027836807 0.011743653
0.011743653 0.030011557 0.029141657 0.006524252 0.027401857 -0.0143533535 0.03871056 -0.055238664
0.04088531 -0.013483454 0.03914551 -0.010438803 0.04088531 -0.003914551 0.033491157 0.018267905
0.029576607 -0.026531957 -0.034796007 -0.030011557 0.011743653 0.0 0.0 -0.04045036
-0.03523096 0.0 -0.04827946 0.03566591 0.034796007 -0.054803714 0.033926107 -0.017398003
0.021747505 0.006089302 -0.0021747504 0.0052194013 -0.016093154 -0.04306006 0.0056543513 -0.034361057
-0.017832955 0.020442655 -0.013918404 0.03827561 0.04610471 -0.024357207 0.0017398004 -0.04349501
0.0143533535 0.030446507 0.023487305 -0.055238664 0.017832955 -0.010003853 -0.03827561 -0.016963053
-0.04001541 -0.031316407 -0.04306006 0.03653581 0.03827561 0.021747505 0.013918404 -0.0008699002
-0.0073941518 0.0147883035 0.04088531 0.020007705 0.031751357 -0.007829102 0.016528104 -0.04175521
0.032621257 0.03566591 0.022182455 -0.03871056 -0.054803714 0.03784066 0.03740571 -0.031316407
0.013048504 -0.055238664 0.009568903 -0.0017398004 0.024357207 0.0013048503 -0.026531957 0.010873753
-0.026966907 0.023922255 0.020007705 0.013048504 0.018702855 -0.04175521 0.0056543513 0.018267905
-0.021312555 -0.055238664 0.030881457 0.027401857 -0.03740571 0.019137805 0.052194014 -0.04523481
-0.017398003 -0.04001541 0.013048504 -0.015658204 0.030881457 0.017398003 0.0152232535 -0.003479601
0.024357207 0.022182455 -0.006089302 -0.0152232535 0.030881457 -0.052628964 -0.055238664 0.008264052
00000000: ab97 2e3d 7368 c03c f041 62bd cad5 83bc
00000010: 3c39 d23c f041 62bd 33e7 23bc 4286 8ebb
00000020: 4286 0e3b f041 62bd a245 003d f041 62bd
00000030: fbb7 b53c 8307 2b3b dc79 e03c f041 62bd
00000040: f265 873c 542a 6bbc e3c6 1c3d 062e 093d
00000050: 97cf 2c3d a44a f23c 2348 b93c 64c9 d53c
00000060: 64c9 d53b 5b77 273d b4e9 dc3c f041 62bd
00000070: 5b77 a7bc b4e9 5cbc 14a9 4e3c e3c6 9cbb
00000080: d850 493d 4bd8 3c3d f041 62bd 6b16 123d
00000090: f265 07bc ab97 ae3c 2348 b93c 0b57 203d
000000a0: b4e9 5c3d a44a f2bb a44a 723c 2348 393c
000000b0: fbb7 b53c 3c39 d2bc 542a 6bbc 14a9 ce3c
000000c0: a245 803c 7368 c03c 040a e43c 93a6 153d
000000d0: 5b77 a7bc 8c59 d9bc c488 47bb 14a9 ce3c
000000e0: 9bf8 c33c 2348 393c f041 62bd 2c9a e73c
000000f0: c488 47bb f041 62bd a76e 173d 8307 2b3b
00000100: 8307 2b3c 8307 2b3b e3c6 9c3b f46a 79bc
00000110: 93a6 153d 0b57 a0bc 0b57 203d 93a6 15bc
00000120: c488 c73b c488 c73b e3c6 9cbb 2348 393c
00000130: 040a 643c 93a6 15bc 2348 39bc 0b57 a03c
00000140: e3c6 9c3c bf5f 30bd a021 5b3d 8307 abbb
00000150: f041 62bd cad5 83bc 7fde 133d 574e 10bd
00000160: f041 62bd 2348 393c f041 62bd c488 473d
00000170: 8c59 59bd a76e 17bd a021 5b3d 6b16 123d
00000180: 14a9 ce3c 3c39 d23c a76e 17bd b4e9 dc3c
00000190: 7368 c03c a245 003d 93a6 953c dc79 60bd
000001a0: f041 62bd 7368 40bc 7cba ee3c 4286 8e3b
000001b0: 33e7 233d 93a6 153d dc79 e03c cad5 83bc
000001c0: ec18 cb3c 5b77 27bd f265 87bc 4bd8 bcbc
000001d0: ccda f5bc c488 c73c 2c9a e73c 8307 abbc
000001e0: e3c6 9cbc c488 473c 1af6 8a3c afc0 45bd
000001f0: a44a f2bc 7891 57bd b4e9 dcbc 542a 6b3c
00000200: 4bd8 bcbc 4bd8 3c3d f041 62bd e3c6 9c3c
00000210: 4bd8 bcbc 1cfb fc3c 040a e4bc 7368 403c
00000220: 7368 403c ccda f53c 7cba ee3c 64c9 d53b
00000230: dc79 e03c 542a 6bbc f78e 1e3d f041 62bd
00000240: 5b77 273d b4e9 5cbc 0b57 203d 8307 2bbc
00000250: 5b77 273d a245 80bb 062e 093d 93a6 953c
00000260: a44a f23c 8c59 d9bc 4286 0ebd ccda f5bc
00000270: 7368 403c 0000 0000 0000 0000 47af 25bd
00000280: 574e 10bd 0000 0000 afc0 45bd 6b16 123d
00000290: 4286 0e3d dc79 60bd 1af6 0a3d 4286 8ebc
000002a0: d327 b23c c488 c73b 4286 0ebb 8307 ab3b
000002b0: cad5 83bc bf5f 30bd 2348 b93b 2ebe 0cbd
000002c0: 6b16 92bc 5b77 a73c 040a 64bc e3c6 1c3d
000002d0: 4bd8 3c3d c488 c7bc 040a e43a d327 32bd
000002e0: 542a 6b3c f46a f93c 7368 c03c f041 62bd
000002f0: 6b16 923c 33e7 23bc e3c6 1cbd 1af6 8abc
00000300: 33e7 23bd a245 00bd bf5f 30bd 93a6 153d
00000310: e3c6 1c3d d327 b23c 040a 643c 040a 64ba
00000320: a44a f2bb a44a 723c 5b77 273d 33e7 a33c
00000330: b60d 023d a245 00bc f265 873c 8307 2bbd
00000340: de9d 053d 6b16 123d fbb7 b53c f78e 1ebd
00000350: dc79 60bd cffe 1a3d bb36 193d a245 00bd
00000360: 64c9 553c f041 62bd e3c6 1c3c 040a e4ba
00000370: c488 c73c 8307 ab3a 8c59 d9bc d327 323c
00000380: b4e9 dcbc 9bf8 c33c 33e7 a33c 64c9 553c
00000390: bb36 993c 8307 2bbd 2348 b93b 93a6 953c
000003a0: ab97 aebc f041 62bd 1cfb fc3c dc79 e03c
000003b0: bb36 19bd e3c6 9c3c 64c9 553d 2348 39bd
000003c0: 4286 8ebc 33e7 23bd 64c9 553c a245 80bc
000003d0: 1cfb fc3c 4286 8e3c f46a 793c 040a 64bb
000003e0: c488 c73c fbb7 b53c c488 c7bb f46a 79bc
000003f0: 1cfb fc3c 7891 57bd f041 62bd f265 073c

scale.27 f4 [3, 1, 1, 1]
0.0004349501 0.00042940758 0.00041786866
00000000: 040a e439 1c22 e139 6215 db39
