src/qonnx/data/onnx/floatquant_exec/qonnx_act_weight_fp8.onnx (onnx, 2038 bytes, 2 tensors)

weight f4 [16, 3]
00000000: 362b 7bbe 47f2 94be a791 47be 0963 c03e
00000010: a4d2 97be bda5 e63e a350 863e 5774 1e3c
00000020: 52ed 433e 3bbc 453e b685 303e a9b5 5b3e
00000030: bad2 093f d43b 0dbf 5db8 a23d aa38 b63e
00000040: c3a1 c6be 82e4 6bbe a3d4 bfbe ea38 0cbe
00000050: f172 01bf edba 0d3e 0607 94be d806 9ebe
00000060: 26d8 01bd 904d 7c3e 5273 b5be 27b2 913e
00000070: f5f0 b8be 96bc b33e df56 af3e 33ae febe
00000080: 01a8 76bd cbe6 163c 811e a8be ff06 ba3e
00000090: 2bbf 9c3e 8d88 bb3e 4b5b 963d 398a 033e
000000a0: c358 8ebc bae4 11bf 5fac d43e 53e9 013d
000000b0: 00ad d83e b615 c8be e558 b4be 1ba8 b83d
-0.24528202 -0.29091093 -0.19489156 0.37575558 -0.29652894 0.45048323 0.26233396 0.009671292
0.191335 0.19310085 0.17238507 0.21456017 0.5383717 -0.55169415 0.07945321 0.35590106
-0.3879529 -0.23036388 -0.37466916 -0.13693586 -0.5056601 0.13840838 -0.28911608 -0.30864596
-0.031700276 0.24638963 -0.35439545 0.28456232 -0.36121336 0.35104817 0.34245965 -0.49742278
-0.060218815 0.009210299 -0.32835773 0.36333463 0.306146 0.36627617 0.073416315 0.12845697
-0.01737631 -0.56989634 0.4153776 0.031716656 0.4231949 -0.39079064 -0.3522407 0.090164386

bias f4 [16]
00000000: a371 00bf 0046 053f 65f2 2e3e 3e05 13bf
00000010: b5bd 0abf 8f65 e53e c37f 6d3e 8149 04bf
00000020: 6afb 033f 557a 1ebd 0165 67bd 65fc cb3d
00000030: 859d 28bd acdd f6be ba95 2a3e 6ab5 95be
-0.50173396 0.52059937 0.17084654 -0.57429874 -0.5419572 0.44804046 0.23193268 -0.5167466
0.515555 -0.038690884 -0.05649281 0.0996025 -0.041165847 -0.48215997 0.16658679 -0.2923997
