src/qonnx/data/onnx/eltwise_chanlast_testcase.onnx (onnx, 5502 bytes, 4 tensors)

Mul_30_param0 f4 [1, 32, 1, 1]
8.31037 8.745311 8.23944 7.0243397 8.31037 9.081694 8.31037 7.1900506
7.3459554 14.874551 8.31037 8.328048 13.63507 8.31037 9.17218 8.31037
8.31037 8.25993 7.773043 8.31037 9.082937 10.298894 10.052849 9.913214
9.437691 11.001871 8.31037 8.687534 8.31037 7.3346334 10.94244 7.1883855
00000000: 47f7 0441 cbec 0b41 bfd4 0341 64c7 e040
00000010: 47f7 0441 9e4e 1141 47f7 0441 e514 e640
00000020: 1112 eb40 29fe 6d41 47f7 0441 af3f 0541
00000030: 3f29 5a41 47f7 0441 40c1 1241 47f7 0441
00000040: 47f7 0441 ac28 0441 c5bc f840 47f7 0441
00000050: b653 1141 45c8 2441 78d8 2041 869c 1e41
00000060: c800 1741 aa07 3041 47f7 0441 2400 0b41
00000070: 47f7 0441 51b5 ea40 3c14 2f41 4107 e640

Add_0_out0_aggr_scale f4 [1, 32, 1, 1]
-2.6339217e-19 7.0141173e-06 4.068577e-06 5.57219e-06 3.783079e-19 2.8618106e-05 1.3813199e-19 5.1149577e-06
5.62206e-06 1.0443936e-05 2.0836426e-19 3.346523e-05 2.484814e-05 3.1011417e-19 5.589913e-06 8.822e-20
3.6731268e-19 2.1782635e-06 6.6811767e-06 -1.9251097e-19 3.421449e-05 1.793326e-05 1.232208e-05 3.299893e-05
-3.8107293e-05 2.2526088e-05 3.9352143e-19 4.9432083e-06 2.0649423e-19 5.742039e-06 4.099667e-05 8.792756e-06
00000000: b37a 9ba0 cf5a eb36 cf84 8836 bff8 ba36
00000010: 4650 df20 ea10 f037 d513 2320 27a1 ab36
00000020: 21a5 bc36 5d38 2f37 3cfe 7520 045d 0c38
00000030: f970 d037 210f b720 fd90 bb36 b84d d01f
00000040: b9d2 d820 482e 1236 df2e e036 df46 63a0
00000050: 8781 0f38 626f 9637 eeba 4e37 5568 0a38
00000060: 65d5 1fb8 68f6 bc37 474b e820 d6dd a536
00000070: 0dc9 7320 bdab c036 d7f3 2b38 9984 1337

Add_0_out0_aggr_bias f4 [1, 32, 1, 1]
0.4344967 1.0699381 0.82067823 0.68280524 -0.06948418 0.7019152 -0.26580426 0.4535727
0.36297995 1.1391029 -0.369785 0.46511444 0.5934859 -0.29186976 0.90094393 -0.20715548
-0.41614214 0.9891777 0.2852254 -0.32901502 0.6133214 0.80435026 0.7157655 0.7319812
0.72383636 0.54080194 0.0046599484 0.6284871 -0.25468823 0.28677124 0.70142543 0.7458614
00000000: 5a76 de3e bbf3 883f f817 523f 53cc 2e3f
00000010: b94d 8ebd b7b0 333f 7f17 88be ae3a e83e
00000020: 82d8 b93e 20ce 913f 7654 bdbe 7b23 ee3e
00000030: b1ee 173f f46f 95be 43a4 663f 9120 54be
00000040: 9510 d5be c03a 7d3f 1009 923e a874 a8be
00000050: a202 1d3f e6e9 4d3f 683c 373f 1f63 3b3f
00000060: 574d 393f ff71 0a3f 7bb2 983b 88e4 203f
00000070: 7f66 82be aed3 923e 9e90 333f c6f0 3e3f

Mul_0_out0 f4 [32, 3, 3, 3]
0.0 0.0 0.0 0.0 0.0 0.0 0.0 0.0
0.0 0.0 0.0 0.0 0.0 0.0 0.0 0.0
0.0 0.0 0.0 0.0 0.0 0.0 0.0 0.0
0.0 0.0 0.0 47.0 -43.0 -2.0 60.0 -31.0
-13.0 37.0 -48.0 -1.0 121.0 -38.0 -55.0 127.0
-32.0 -73.0 82.0 -58.0 -56.0 39.0 -44.0 -11.0
58.0 -23.0 -11.0 30.0 -34.0 9.0 86.0 -17.0
0.0 9.0 -47.0 -81.0 -79.0 27.0 -15.0 -7.0
-47.0 31.0 -7.0 44.0 51.0 -88.0 127.0 95.0
-17.0 -43.0 38.0 9.0 44.0 65.0 -46.0 120.0
108.0 10.0 -2.0 -58.0 50.0 92.0 23.0 55.0
127.0 52.0 1.0 12.0 26.0 -55.0 -43.0 -19.0
-4.0 9.0 13.0 -8.0 21.0 54.0 -88.0 -92.0
-35.0 -52.0 -65.0 -15.0 0.0 0.0 0.0 0.0
0.0 0.0 0.0 0.0 0.0 0.0 0.0 0.0
0.0 0.0 0.0 0.0 0.0 0.0 0.0 0.0
0.0 0.0 0.0 0.0 0.0 0.0 0.0 1.0
63.0 -67.0 9.0 72.0 -71.0 -13.0 -29.0 36.0
18.0 100.0 -127.0 24.0 106.0 -113.0 -28.0 -48.0
65.0 1.0 28.0 -33.0 -1.0 37.0 -33.0 -2.0
-22.0 25.0 0.0 0.0 0.0 0.0 0.0 0.0
0.0 0.0 0.0 0.0 0.0 0.0 0.0 0.0
0.0 0.0 0.0 0.0 0.0 0.0 0.0 0.0
0.0 0.0 0.0 0.0 0.0 0.0 26.0 -46.0
-7.0 41.0 -3.0 -32.0 34.0 44.0 40.0 96.0
61.0 64.0 99.0 65.0 43.0 70.0 64.0 -58.0
-66.0 -57.0 -51.0 -120.0 -127.0 -13.0 -104.0 -107.0
96.0 -14.0 -68.0 95.0 127.0 111.0 31.0 115.0
87.0 -7.0 -109.0 -32.0 -66.0 -115.0 -29.0 -50.0
-104.0 -87.0 9.0 7.0 124.0 -4.0 -31.0 50.0
20.0 -52.0 -74.0 14.0 -7.0 -22.0 7.0 -14.0
-22.0 -32.0 6.0 100.0 12.0 -7.0 -18.0 -4.0
00000000: 0000 0000 0000 0000 0000 0000 0000 0000
00000010: 0000 0000 0000 0000 0000 0000 0000 0000
00000020: 0000 0000 0000 0000 0000 0000 0000 0000
00000030: 0000 0000 0000 0000 0000 0000 0000 0000
00000040: 0000 0000 0000 0000 0000 0000 0000 0000
00000050: 0000 0000 0000 0000 0000 0000 0000 0000
00000060: 0000 0000 0000 0000 0000 0000 0000 3c42
00000070: 0000 2cc2 0000 00c0 0000 7042 0000 f8c1
00000080: 0000 50c1 0000 1442 0000 40c2 0000 80bf
00000090: 0000 f242 0000 18c2 0000 5cc2 0000 fe42
000000a0: 0000 00c2 0000 92c2 0000 a442 0000 68c2
000000b0: 0000 60c2 0000 1c42 0000 30c2 0000 30c1
000000c0: 0000 6842 0000 b8c1 0000 30c1 0000 f041
000000d0: 0000 08c2 0000 1041 0000 ac42 0000 88c1
000000e0: 0000 0000 0000 1041 0000 3cc2 0000 a2c2
000000f0: 0000 9ec2 0000 d841 0000 70c1 0000 e0c0
00000100: 0000 3cc2 0000 f841 0000 e0c0 0000 3042
00000110: 0000 4c42 0000 b0c2 0000 fe42 0000 be42
00000120: 0000 88c1 0000 2cc2 0000 1842 0000 1041
00000130: 0000 3042 0000 8242 0000 38c2 0000 f042
00000140: 0000 d842 0000 2041 0000 00c0 0000 68c2
00000150: 0000 4842 0000 b842 0000 b841 0000 5c42
00000160: 0000 fe42 0000 5042 0000 803f 0000 4041
00000170: 0000 d041 0000 5cc2 0000 2cc2 0000 98c1
00000180: 0000 80c0 0000 1041 0000 5041 0000 00c1
00000190: 0000 a841 0000 5842 0000 b0c2 0000 b8c2
000001a0: 0000 0cc2 0000 50c2 0000 82c2 0000 70c1
000001b0: 0000 0000 0000 0000 0000 0000 0000 0000
000001c0: 0000 0000 0000 0000 0000 0000 0000 0000
000001d0: 0000 0000 0000 0000 0000 0000 0000 0000
000001e0: 0000 0000 0000 0000 0000 0000 0000 0000
000001f0: 0000 0000 0000 0000 0000 0000 0000 0000
00000200: 0000 0000 0000 0000 0000 0000 0000 0000
00000210: 0000 0000 0000 0000 0000 0000 0000 803f
00000220: 0000 7c42 0000 86c2 0000 1041 0000 9042
00000230: 0000 8ec2 0000 50c1 0000 e8c1 0000 1042
00000240: 0000 9041 0000 c842 0000 fec2 0000 c041
00000250: 0000 d442 0000 e2c2 0000 e0c1 0000 40c2
00000260: 0000 8242 0000 803f 0000 e041 0000 04c2
00000270: 0000 80bf 0000 1442 0000 04c2 0000 00c0
00000280: 0000 b0c1 0000 c841 0000 0000 0000 0000
00000290: 0000 0000 0000 0000 0000 0000 0000 0000
000002a0: 0000 0000 0000 0000 0000 0000 0000 0000
000002b0: 0000 0000 0000 0000 0000 0000 0000 0000
000002c0: 0000 0000 0000 0000 0000 0000 0000 0000
000002d0: 0000 0000 0000 0000 0000 0000 0000 0000
000002e0: 0000 0000 0000 0000 0000 0000 0000 0000
000002f0: 0000 0000 0000 0000 0000 d041 0000 38c2
00000300: 0000 e0c0 0000 2442 0000 40c0 0000 00c2
00000310: 0000 0842 0000 3042 0000 2042 0000 c042
00000320: 0000 7442 0000 8042 0000 c642 0000 8242
00000330: 0000 2c42 0000 8c42 0000 8042 0000 68c2
00000340: 0000 84c2 0000 64c2 0000 4cc2 0000 f0c2
00000350: 0000 fec2 0000 50c1 0000 d0c2 0000 d6c2
00000360: 0000 c042 0000 60c1 0000 88c2 0000 be42
00000370: 0000 fe42 0000 de42 0000 f841 0000 e642
00000380: 0000 ae42 0000 e0c0 0000 dac2 0000 00c2
00000390: 0000 84c2 0000 e6c2 0000 e8c1 0000 48c2
000003a0: 0000 d0c2 0000 aec2 0000 1041 0000 e040
000003b0: 0000 f842 0000 80c0 0000 f8c1 0000 4842
000003c0: 0000 a041 0000 50c2 0000 94c2 0000 6041
000003d0: 0000 e0c0 0000 b0c1 0000 e040 0000 60c1
000003e0: 0000 b0c1 0000 00c2 0000 c040 0000 c842
000003f0: 0000 4041 0000 e0c0 0000 90c1 0000 80c0
